best_model.pth (torch, 473195 bytes, 13 tensors)

convs.0.nn.lins.0.weight f4 [128, 8]
00000000: c316 0080 dd64 0080 755f 0080 2f9f 0080
00000010: cd20 0000 d443 0080 b810 0080 9c38 0080
00000020: bd07 0080 9421 0080 5138 0080 5d2a 0080
00000030: 3c3f 0000 688e 0000 431a 0000 f415 0080
00000040: 0e02 0000 431f 0000 0e23 0080 8278 0080
00000050: 3f2e 0000 8f5f 0080 fe16 0080 8c22 0000
00000060: 9f0c 0080 f41f 0000 4901 0000 530e 0000
00000070: 8430 0000 cb1f 0080 5321 0080 a927 0080
00000080: 9964 0080 f756 0000 923b 0000 cf13 0080
00000090: 1265 0080 771b 0080 e30f 0000 7b05 0080
000000a0: 7715 0080 8b0e 0080 7e73 0080 4f22 0080
000000b0: 8e1d 0080 341a 0080 f9b2 0000 d72a 0080
000000c0: 2319 0000 141a 0000 9d19 0100 c218 0000
000000d0: 0c3b 0080 b523 0000 1f21 0080 6b14 0000
000000e0: 092f 0080 812e 0080 4a39 0000 cc19 0080
000000f0: e54d 0080 2f1d 0080 2918 0000 9505 0000
00000100: eb1f 0000 3f52 0000 509b 0080 c72a 0080
00000110: f122 0000 e93d 0000 5169 0000 1f2e 0000
00000120: 9b3d 0080 ad00 0080 c414 0080 0508 0080
00000130: cb18 0000 d227 0000 cc72 0080 161b 0000
00000140: 0b05 0080 7119 0000 8d42 0080 1c2c 0080
00000150: 5023 0080 d520 0000 5c31 0080 2802 0000
00000160: a52a 0000 dd18 0080 990a 0000 de29 0080
00000170: c603 0000 0130 0080 052c 0000 fd45 0000
00000180: ea00 0000 0f3c 0080 6f2e 0000 eb1c 0000
00000190: 464f 0080 6f0e 0000 db33 0000 9012 0080
000001a0: 9c01 0000 491b 0080 2120 0080 9d4d 0000
000001b0: f461 0080 471f 0080 370f 0080 ad0f 0080
000001c0: a62f 0080 15a0 0080 ef26 0080 333f 0080
000001d0: 9e25 0000 561e 0080 561e 0080 7307 0080
000001e0: 2c28 0080 3426 0080 7834 0080 011e 0080
000001f0: 636d 0000 a707 0080 5710 0000 ea3f 0000
00000200: 1d77 0000 1e38 0000 0309 0080 0331 0000
00000210: eb01 0000 e000 0000 3e35 0000 d926 0000
00000220: 271f 0080 333a 0080 ef02 0080 3501 0000
00000230: b11f 0000 7924 0000 e75e 0080 8c26 0000
00000240: 7428 0000 bb31 0000 da24 0080 1725 0080
00000250: b301 0000 542c 0080 2319 0000 4f1e 0080
00000260: db57 0080 442f 0000 9d44 0080 9c43 0000
00000270: dd2d 0080 122a 0000 9080 0000 9bf0 0080
00000280: d33b 0080 cb82 0080 0c1a 0080 0c2e 0080
00000290: 4510 0080 8911 0080 8505 0000 ad24 0000
000002a0: 0229 0080 e928 0000 9527 0000 7e2a 0000
000002b0: 9314 0080 0925 0000 ee0a 0080 9230 0080
000002c0: a328 0080 5918 0000 8665 0080 2c15 0080
000002d0: 7f1e 0000 3d0e 0080 3b01 0000 1c02 0080
000002e0: 4304 0000 173f 0080 a547 0000 bb10 0080
000002f0: 724d 0000 4219 0000 f814 0000 a81e 0000
00000300: 4d31 0080 f510 0000 3d0e 0000 e172 0000
00000310: 5655 0080 754b 0080 dc28 0080 7709 0080
00000320: c031 0000 fa12 0000 f407 0000 012b 0080
00000330: f427 0000 6a2f 0000 b33c 0000 5a00 0080
00000340: 992d 0000 4f32 0080 7f32 0000 3d29 0000
00000350: 7661 0000 3a0a 0000 092c 0000 be44 0080
00000360: 4a2f 0080 ee24 0000 3c09 0000 cc09 0080
00000370: c625 0000 8501 0000 0125 0000 2f1c 0000
00000380: d01e 0080 8828 0080 880a 0080 3024 0000
00000390: 992e 0000 9221 0000 0015 0080 4b0e 0080
000003a0: 7f2f 0000 1022 0080 d529 0080 da12 0080
000003b0: f726 0000 a506 0080 7c11 0080 242f 0080
000003c0: ad2f 0080 5005 0080 432c 0080 800e 0000
000003d0: cf17 0000 6d3e 0000 c01c 0080 fe2b 0080
000003e0: 2989 0080 2e2f 0000 8e5d 0080 4518 0000
000003f0: d40a 0080 d144 0080 cb24 0080 bc2b 0000
-8.165e-42 -3.6183e-41 -3.4244e-41 -5.7104e-41 1.1767e-41 -2.4332e-41 -5.998e-42 -2.0308e-41
-2.776e-42 -1.2046e-41 -2.0203e-41 -1.5197e-41 2.2684e-41 5.1086e-41 9.421e-42 -7.875e-42
7.37e-43 1.1215e-41 -1.2575e-41 -4.323e-41 1.659e-41 -3.428e-41 -8.248e-42 1.2393e-41
-4.528e-42 1.1463e-41 4.61e-43 5.139e-42 1.7404e-41 -1.1405e-41 -1.1954e-41 -1.4227e-41
-3.6088e-41 3.1197e-41 2.137e-41 -7.106e-42 -3.6257e-41 -9.853e-42 5.699e-42 -1.966e-42
-7.7e-42 -5.217e-42 -4.1431e-41 -1.2308e-41 -1.0602e-41 -9.4e-42 6.4203e-41 -1.5368e-41
9.017e-42 9.355e-42 1.01024e-40 8.881e-42 -2.1182e-41 1.2809e-41 -1.1882e-41 7.325e-42
-1.6873e-41 -1.6682e-41 2.0551e-41 -9.254e-42 -2.7943e-41 -1.0469e-41 8.667e-42 2.002e-42
1.145e-41 2.9504e-41 -5.5716e-41 -1.5346e-41 1.2535e-41 2.2209e-41 3.778e-41 1.6545e-41
-2.21e-41 -2.42e-43 -7.45e-42 -2.877e-42 8.894e-42 1.4285e-41 -4.1181e-41 9.717e-42
-1.809e-42 9.127e-42 -2.3874e-41 -1.5823e-41 -1.2668e-41 1.1778e-41 -1.7707e-41 7.74e-43
1.5298e-41 -8.919e-42 3.802e-42 -1.5019e-41 1.354e-42 -1.722e-41 1.5791e-41 2.5107e-41
3.28e-43 -2.1545e-41 1.6657e-41 1.0374e-41 -2.8438e-41 5.178e-42 1.8602e-41 -6.659e-42
5.77e-43 -9.788e-42 -1.1526e-41 2.7842e-41 -3.5139e-41 -1.122e-41 -5.458e-42 -5.623e-42
-1.7093e-41 -5.7427e-41 -1.3967e-41 -2.2672e-41 1.3495e-41 -1.0882e-41 -1.0882e-41 -2.672e-42
-1.4411e-41 -1.3705e-41 -1.8822e-41 -1.0763e-41 3.924e-41 -2.745e-42 5.862e-42 2.2928e-41
4.273e-41 2.0131e-41 -3.233e-42 1.7582e-41 6.88e-43 3.14e-43 1.91e-41 1.3936e-41
-1.1175e-41 -2.0878e-41 -1.052e-42 4.33e-43 1.1369e-41 1.3084e-41 -3.4045e-41 1.3828e-41
1.4512e-41 1.784e-41 -1.322e-41 -1.3305e-41 6.1e-43 -1.5902e-41 9.017e-42 -1.0873e-41
-3.1517e-41 1.6956e-41 -2.4614e-41 2.4254e-41 -1.6453e-41 1.5092e-41 4.612e-41 -8.6313e-41
-2.1461e-41 -4.692e-41 -9.344e-42 -1.6519e-41 -5.836e-42 -6.29e-42 1.98e-42 1.3157e-41
-1.4711e-41 1.4676e-41 1.42e-41 1.5243e-41 -7.38e-42 1.3286e-41 -3.921e-42 -1.7424e-41
-1.4578e-41 8.734e-42 -3.642e-41 -7.595e-42 1.094e-41 -5.108e-42 4.41e-43 -7.57e-43
1.529e-42 -2.2632e-41 2.5701e-41 -6.002e-42 2.7782e-41 9.061e-42 7.522e-42 1.0997e-41
-1.7686e-41 6.083e-42 5.108e-42 4.1211e-41 -3.0613e-41 -2.7069e-41 -1.4658e-41 -3.395e-42
1.7847e-41 6.808e-42 2.853e-42 -1.5427e-41 1.4332e-41 1.7009e-41 2.1775e-41 -1.26e-43
1.6357e-41 -1.8047e-41 1.8115e-41 1.4794e-41 3.4962e-41 3.669e-42 1.5797e-41 -2.466e-41
-1.6964e-41 1.3248e-41 3.313e-42 -3.514e-42 1.355e-41 5.45e-43 1.3275e-41 1.011e-41
-1.1053e-41 -1.454e-41 -3.778e-42 1.2982e-41 1.6716e-41 1.2043e-41 -7.533e-42 -5.127e-42
1.7038e-41 -1.222e-41 -1.5007e-41 -6.763e-42 1.3978e-41 -2.384e-42 -6.272e-42 -1.6911e-41
-1.7103e-41 -1.906e-42 -1.5878e-41 5.202e-42 8.541e-42 2.2394e-41 -1.0314e-41 -1.5781e-41
-4.9204e-41 1.6925e-41 -3.3561e-41 8.706e-42 -3.884e-42 -2.4687e-41 -1.3199e-41 1.5689e-41

convs.0.nn.lins.0.bias f4 [128]
00000000: 3001 0000 c713 0080 c452 0000 7028 0000
00000010: 2067 0080 b42e 0000 592d 0000 e60e 0000
00000020: 0403 0080 9a2c 0000 ee47 0080 3520 0080
00000030: 3522 0080 9e1f 0080 660b 0080 3b2d 0000
00000040: f10f 0080 5714 0080 845e 0080 5a34 0080
00000050: 446d 0000 4374 0000 b129 0080 a521 0080
00000060: ee15 0000 0322 0000 a828 0080 2f03 0000
00000070: 2f16 0080 e31c 0000 f944 0100 04a0 0000
00000080: 401c 0080 9d13 0080 001e 0080 3011 0000
00000090: 8624 0000 6911 0080 1c77 0080 0f1f 0000
000000a0: ca1c 0000 5a06 0080 2d22 0000 820b 0080
000000b0: bb2b 0000 e10c 0000 6531 0000 4d13 0000
000000c0: 4073 0000 a539 0000 d314 0000 6c1a 0080
000000d0: 300a 0000 399e 0000 ca4f 0000 442c 0080
000000e0: 410d 0000 3857 0000 7934 0000 6f33 0080
000000f0: 0f2e 0080 b127 0080 0c1e 0000 1106 0000
00000100: bc20 0000 f50d 0080 6501 0000 0703 0000
00000110: 3d06 0080 312c 0000 000e 0000 e319 0000
00000120: ca01 0000 510b 0080 644d 0000 1d15 0000
00000130: 1e28 0000 370d 0000 3601 0080 3c2c 0080
00000140: d416 0080 3201 0000 2e69 0080 c02e 0000
00000150: c42a 0000 940f 0080 070e 0080 be65 0100
00000160: b004 0080 6d26 0080 e335 0080 0e18 0080
00000170: f21b 0080 2827 0080 8f0c 0080 cb44 0080
00000180: 8213 0000 3218 0000 ff18 0000 b41f 0000
00000190: 3a14 0080 3621 0000 0644 0080 2d1c 0080
000001a0: 2a55 0000 2a2e 0080 480e 0000 202b 0000
000001b0: 4f1b 0000 8d07 0000 9d46 0080 a707 0080
000001c0: ed1e 0080 b535 0080 0769 0000 61a1 0000
000001d0: 9f1b 0000 8f12 0080 951d 0000 f82f 0080
000001e0: 5f10 0000 a850 0080 891c 0080 551d 0000
000001f0: 9c12 0080 9b3b 0080 bb08 0080 0b15 0080
4.26e-43 -7.095e-42 2.9691e-41 1.4506e-41 -3.6994e-41 1.6754e-41 1.6268e-41 5.345e-42
-1.082e-42 1.6e-41 -2.5804e-41 -1.1554e-41 -1.2271e-41 -1.1342e-41 -4.089e-42 1.6226e-41
-5.719e-42 -7.297e-42 -3.3906e-41 -1.878e-41 3.9197e-41 4.1707e-41 -1.4956e-41 -1.207e-41
7.867e-42 1.2201e-41 -1.4585e-41 1.142e-42 -7.958e-42 1.0363e-41 1.16578e-40 5.7403e-41
-1.0134e-41 -7.036e-42 -1.0762e-41 6.166e-42 1.3102e-41 -6.246e-42 -4.2728e-41 1.1142e-41
1.0328e-41 -2.279e-42 1.226e-41 -4.128e-42 1.5688e-41 4.62e-42 1.772e-41 6.924e-42
4.1344e-41 2.0679e-41 7.47e-42 -9.478e-42 3.655e-42 5.676e-41 2.8623e-41 -1.588e-41
4.755e-42 3.1288e-41 1.8824e-41 -1.8451e-41 -1.6523e-41 -1.4239e-41 1.0779e-41 2.176e-42
1.1743e-41 -5.007e-42 5e-43 1.086e-42 -2.238e-42 1.5853e-41 5.022e-42 9.286e-42
6.42e-43 -4.06e-42 2.7763e-41 7.574e-42 1.4391e-41 4.74e-42 -4.34e-43 -1.5868e-41
-8.189e-42 4.29e-43 -3.7731e-41 1.6771e-41 1.5341e-41 -5.588e-42 -5.032e-42 1.28334e-40
-1.682e-42 -1.3785e-41 -1.9331e-41 -8.629e-42 -1.0025e-41 -1.4047e-41 -4.505e-42 -2.4678e-41
6.998e-42 8.68e-42 8.967e-42 1.1373e-41 -7.256e-42 1.1914e-41 -2.4402e-41 -1.0108e-41
3.0551e-41 -1.656e-41 5.123e-42 1.547e-41 9.796e-42 2.709e-42 -2.5331e-41 -2.745e-42
-1.1094e-41 -1.9266e-41 3.7677e-41 5.7892e-41 9.909e-42 -6.658e-42 1.0612e-41 -1.7208e-41
5.873e-42 -2.8934e-41 -1.0236e-41 1.0522e-41 -6.676e-42 -2.1382e-41 -3.132e-42 -7.549e-42

convs.0.nn.lins.1.weight f4 [128, 128]
00000000: 9414 0000 2063 0000 0c6e 0080 f227 0100
00000010: d34f 0080 6930 0000 f10a 0000 d388 0080
00000020: a45b 0080 6159 0000 7865 0080 b07d 0000
00000030: c43c 0000 6a6e 0000 8559 0180 ec57 0080
00000040: 9d6a 0000 4867 0080 4d3b 0080 ed46 0080
00000050: 0021 0000 ad5e 0080 ea35 0080 52c7 0000
00000060: 2c75 0080 a075 0000 1c55 0080 a93d 0000
00000070: 6521 0080 c15a 0080 655d 0180 b412 0080
00000080: 02cf 0080 b111 0000 a11b 0080 8331 0080
00000090: 2604 0000 7f57 0000 3137 0000 9961 0000
000000a0: e217 0000 e0a5 0000 0c59 0080 944e 0000
000000b0: ba93 0080 f170 0080 cc03 0080 d941 0000
000000c0: 7221 0080 fe28 0080 6757 0000 7c29 0080
000000d0: d714 0080 456d 0080 8297 0080 5843 0000
000000e0: c05e 0100 fe46 0000 5410 0000 ad3b 0080
000000f0: e623 0080 e12c 0000 69a0 0080 c634 0000
00000100: ae0c 0080 2d99 0000 361f 0080 c640 0080
00000110: 5c5d 0000 720b 0000 7b22 0000 bc2a 0000
00000120: 644f 0080 3d2e 0080 342d 0080 435a 0080
00000130: fe5e 0000 470b 0000 511e 0000 d72a 0080
00000140: 9734 0000 e8db 0080 ca56 0080 265e 0080
00000150: b660 0080 774f 0000 963f 0080 f959 0000
00000160: fc59 0000 d13d 0000 816b 0000 b55c 0000
00000170: deba 0000 ac53 0080 da43 0080 2429 0000
00000180: 44a1 0000 52b2 0000 1131 0080 fc6f 0080
00000190: f732 0000 4648 0080 e908 0000 558c 0080
000001a0: 63f2 0000 6fbc 0080 e65c 0000 0727 0080
000001b0: 1740 0000 6984 0000 8806 0080 9124 0000
000001c0: d06f 0080 7d1d 0080 e053 0080 2c56 0080
000001d0: 461a 0080 0f5e 0000 cd51 0000 494d 0000
000001e0: b6be 0080 e512 0000 5a13 0000 a650 0000
000001f0: 2a19 0080 b506 0080 5973 0000 423e 0000
00000200: 673d 0000 725b 0180 4c62 0000 853e 0080
00000210: 810a 0000 627d 0000 304b 0080 0837 0000
00000220: c72a 0080 f902 0000 9454 0000 2b54 0080
00000230: e15b 0000 243d 0080 b437 0000 0b00 0080
00000240: ef69 0080 ba08 0080 3707 0080 1010 0000
00000250: 6112 0080 f741 0080 674e 0000 842e 0000
00000260: 100b 0000 554a 0080 1d59 0080 d8f2 0000
00000270: 7fc4 0080 cf0d 0080 a451 0080 5948 0000
00000280: 6c70 0000 b848 0000 1a1f 0000 b34d 0000
00000290: b21c 0000 2943 0000 be3b 0080 ce29 0000
000002a0: 2a75 0080 2203 0000 c932 0000 0605 0080
000002b0: 8245 0000 e40b 0000 2078 0000 105b 0000
000002c0: 1273 0080 d4ae 0000 f448 0000 f928 0000
000002d0: a42e 0080 0c65 0080 8405 0000 0746 0080
000002e0: 2e1c 0000 b057 0180 f4ab 0000 ab87 0080
000002f0: f807 0080 3b04 0080 2a8c 0080 ae50 0000
00000300: 3c12 0000 5049 0080 e345 0080 5d09 0000
00000310: 1009 0080 cac9 0080 b8da 0000 8115 0080
00000320: 27ab 0000 1e15 0000 4b43 0000 3a45 0000
00000330: 3947 0080 255a 0080 2668 0080 866c 0000
00000340: 8629 0080 6ba9 0080 174f 0080 a27b 0000
00000350: 8458 0080 59d2 0000 7f46 0080 483c 0080
00000360: 0d6f 0080 b23c 0000 c80b 0080 ba70 0080
00000370: a953 0000 4900 0000 f907 0080 cc27 0080
00000380: 7b0d 0080 aa06 0080 6b6d 0080 9e48 0080
00000390: 9f02 0000 394e 0000 e82f 0080 0371 0000
000003a0: 550d 0080 9621 0100 bc2f 0000 3c30 0000
000003b0: 630c 0080 ae28 0000 dd33 0080 1509 0080
000003c0: 3911 0080 2725 0080 5585 0080 e44d 0000
000003d0: c27c 0080 6717 0080 0035 0080 1a8d 0000
000003e0: 2b78 0080 7235 0080 4d00 0000 b34a 0080
000003f0: dc49 0000 665a 0000 512d 0000 0b1c 0000
7.382e-42 3.556e-41 -3.9477e-41 1.06165e-40 -2.8636e-41 1.7366e-41 3.925e-42 -4.9083e-41
-3.2874e-41 3.2063e-41 -3.64e-41 4.5088e-41 2.1799e-41 3.9609e-41 -1.23949e-40 -3.154e-41
3.8246e-41 -3.705e-41 -2.1273e-41 -2.5443e-41 1.1838e-41 -3.3963e-41 -1.9341e-41 7.1503e-41
-4.2033e-41 4.2196e-41 -3.0531e-41 2.212e-41 -1.198e-41 -3.2556e-41 -1.25339e-40 -6.71e-42
-7.426e-41 6.346e-42 -9.911e-42 -1.7761e-41 1.488e-42 3.1388e-41 1.9799e-41 3.5011e-41
8.568e-42 5.9505e-41 -3.1944e-41 2.8189e-41 -5.2994e-41 -4.0516e-41 -1.362e-42 2.3622e-41
-1.1998e-41 -1.4705e-41 3.1354e-41 -1.4882e-41 -7.476e-42 -3.9199e-41 -5.4351e-41 2.4158e-41
1.25825e-40 2.5467e-41 5.857e-42 -2.1408e-41 -1.2878e-41 1.61e-41 -5.7544e-41 1.8932e-41
-4.549e-42 5.4949e-41 -1.1196e-41 -2.3236e-41 3.3491e-41 4.106e-42 1.2369e-41 1.533e-41
-2.848e-41 -1.6587e-41 -1.6216e-41 -3.238e-41 3.4077e-41 4.046e-42 1.0875e-41 -1.5368e-41
1.8866e-41 -7.8887e-41 -3.1134e-41 -3.3774e-41 -3.4693e-41 2.8507e-41 -2.281e-41 3.2276e-41
3.228e-41 2.2176e-41 3.8565e-41 3.3257e-41 6.7035e-41 -3.0016e-41 -2.434e-41 1.4758e-41
5.7851e-41 6.3969e-41 -1.7602e-41 -4.0172e-41 1.8283e-41 -2.5927e-41 3.196e-42 -5.0342e-41
8.6952e-41 -6.7597e-41 3.3326e-41 -1.4e-41 2.2991e-41 4.75e-41 -2.343e-42 1.3118e-41
-4.0111e-41 -1.0578e-41 -3.0089e-41 -3.0913e-41 -9.425e-42 3.3742e-41 2.9345e-41 2.7725e-41
-6.8414e-41 6.778e-42 6.942e-42 2.8931e-41 -9.027e-42 -2.406e-42 4.1379e-41 2.2334e-41
2.2027e-41 -1.2464e-40 3.5262e-41 -2.2428e-41 3.768e-42 4.4979e-41 -2.6972e-41 1.9741e-41
-1.5346e-41 1.066e-42 3.0341e-41 -3.0194e-41 3.296e-41 -2.1933e-41 1.9983e-41 -1.5e-44
-3.8002e-41 -3.13e-42 -2.588e-42 5.762e-42 -6.593e-42 -2.3664e-41 2.8125e-41 1.6687e-41
3.968e-42 -2.6665e-41 -3.1968e-41 8.7116e-41 -7.049e-41 -4.954e-42 -2.9287e-41 2.5953e-41
4.033e-41 2.6087e-41 1.1157e-41 2.7873e-41 1.0294e-41 2.4093e-41 -2.1431e-41 1.4997e-41
-4.203e-41 1.124e-42 1.8218e-41 -1.802e-42 2.4935e-41 4.266e-42 4.3093e-41 3.2667e-41
-4.128e-41 6.2717e-41 2.617e-41 1.4698e-41 -1.6732e-41 -3.6249e-41 1.979e-42 -2.5121e-41
1.0109e-41 -1.23292e-40 6.1685e-41 -4.8668e-41 -2.859e-42 -1.518e-42 -5.0281e-41 2.8942e-41
6.541e-42 -2.63e-41 -2.507e-41 3.359e-42 -3.251e-42 -7.2388e-41 7.8462e-41 -7.714e-42
6.1398e-41 7.575e-42 2.414e-41 2.4834e-41 -2.555e-41 -3.2338e-41 -3.7361e-41 3.8931e-41
-1.4896e-41 -6.0776e-41 -2.8372e-41 4.4351e-41 -3.1753e-41 7.5459e-41 -2.5289e-41 -2.1625e-41
-3.9838e-41 2.1773e-41 -4.226e-42 -4.0439e-41 3.0012e-41 1.02e-43 -2.86e-42 -1.4276e-41
-4.836e-42 -2.39e-42 -3.9252e-41 -2.605e-41 9.4e-43 2.8061e-41 -1.7186e-41 4.0541e-41
-4.783e-42 1.03884e-40 1.7124e-41 1.7303e-41 -4.444e-42 1.4593e-41 -1.8605e-41 -3.258e-42
-6.178e-42 -1.3328e-41 -4.783e-41 2.7942e-41 -4.4755e-41 -8.395e-42 -1.9013e-41 5.0618e-41
-4.3108e-41 -1.9173e-41 1.08e-43 -2.6797e-41 2.6496e-41 3.2429e-41 1.6256e-41 1.006e-41

convs.0.nn.lins.1.bias f4 [128]
00000000: 30a8 0080 2d1d 0000 ec2d 0080 4b41 0000
00000010: 9d63 0000 2e6b 0000 7d39 0080 ac30 0000
00000020: 2705 0000 f02a 0000 e706 0000 8fbf 0080
00000030: 503a 0000 3b0a 0080 5b60 0080 e948 0080
00000040: ae56 0000 d60a 0080 386f 0000 9753 0080
00000050: 425e 0100 5631 0000 f662 0000 8816 0000
00000060: c40b 0080 1d56 0080 9047 0000 a025 0000
00000070: 0116 0080 2011 0080 34fc 0080 094b 0000
00000080: 594a 0000 af59 0080 2c19 0080 3a73 0080
00000090: fb53 0080 5462 0080 1f98 0000 3a5c 0080
000000a0: f22c 0000 0bde 0080 759d 0000 8535 0080
000000b0: 7d0e 0080 a96e 0000 1550 0080 3d0c 0080
000000c0: 090a 0000 8e55 0080 4c8c 0080 3b3d 0000
000000d0: 2e16 0000 4ae7 0000 3b1c 0080 e3b2 0000
000000e0: 4426 0000 6cbc 0000 2a29 0080 bda1 0080
000000f0: ab46 0080 b46e 0080 e42f 0080 bd85 0080
00000100: 3c5b 0000 a18b 0080 2d1a 0080 a57f 0000
00000110: 3c67 0000 13ba 0080 3490 0000 9c2f 0100
00000120: 0f34 0000 3d18 0000 85d1 0000 9d0d 0080
00000130: 4e50 0000 9735 0080 0650 0080 2b80 0080
00000140: a25d 0000 9662 0000 2f4f 0080 4356 0080
00000150: 7d78 0000 002f 0000 f046 0000 d125 0000
00000160: b609 0000 96c7 0080 4240 0080 bea2 0080
00000170: cc62 0000 e26b 0000 4468 0000 6201 0000
00000180: 03b8 0080 ec4f 0000 2938 0080 bd24 0000
00000190: ac12 0000 f36b 0100 b621 0080 0034 0080
000001a0: d348 0000 1807 0000 0c68 0000 cd4c 0080
000001b0: 6d3f 0000 6b3a 0000 6931 0080 c827 0000
000001c0: daa2 0080 7d93 0000 ef21 0000 8510 0000
000001d0: 5d2a 0080 4209 0000 a7c3 0080 f812 0080
000001e0: 0386 0080 6761 0000 5f3d 0080 ba46 0000
000001f0: 1892 0000 de94 0000 5621 0000 3942 0000
-6.0334e-41 1.0466e-41 -1.6474e-41 2.3423e-41 3.5735e-41 3.8449e-41 -2.0623e-41 1.746e-41
1.848e-42 1.5403e-41 2.476e-42 -6.8718e-41 2.0919e-41 -3.67e-42 -3.4566e-41 -2.6155e-41
3.1095e-41 -3.887e-42 3.9898e-41 -2.9986e-41 1.25649e-40 1.7698e-41 3.55e-41 8.083e-42
-4.221e-42 -3.0892e-41 2.5672e-41 1.3497e-41 -7.894e-42 -6.143e-42 -9.0473e-41 2.6918e-41
2.6671e-41 -3.2172e-41 -9.03e-42 -4.1336e-41 -3.0127e-41 -3.5273e-41 5.4571e-41 -3.3085e-41
1.6123e-41 -7.9654e-41 5.6485e-41 -1.9199e-41 -5.197e-42 3.9697e-41 -2.8728e-41 -4.39e-42
3.6e-42 -3.0691e-41 -5.0329e-41 2.1965e-41 7.957e-42 8.2971e-41 -1.0127e-41 6.4172e-41
1.3727e-41 6.7593e-41 -1.4767e-41 -5.8021e-41 -2.5351e-41 -3.9713e-41 -1.718e-41 -4.7976e-41
3.2729e-41 -5.009e-41 -9.39e-42 4.579e-41 3.7034e-41 -6.6751e-41 5.173e-41 1.08915e-40
1.8675e-41 8.695e-42 7.5161e-41 -4.884e-42 2.8808e-41 -1.9224e-41 -2.8707e-41 -4.5978e-41
3.3589e-41 3.5366e-41 -2.8406e-41 -3.0945e-41 4.3223e-41 1.686e-41 2.5448e-41 1.3566e-41
3.484e-42 -7.1598e-41 -2.3051e-41 -5.8381e-41 3.5442e-41 3.8701e-41 3.7403e-41 4.96e-43
-6.6011e-41 2.867e-41 -2.0146e-41 1.3179e-41 6.698e-42 1.3056e-40 -1.2093e-41 -1.8654e-41
2.6124e-41 2.545e-42 3.7325e-41 -2.7551e-41 2.2753e-41 2.0956e-41 -1.7725e-41 1.4271e-41
-5.842e-41 5.2909e-41 1.2173e-41 5.926e-42 -1.5197e-41 3.321e-42 -7.0187e-41 -6.805e-42
-4.8074e-41 3.4941e-41 -2.2016e-41 2.5372e-41 5.2409e-41 5.3403e-41 1.1959e-41 2.3756e-41

convs.1.nn.lins.0.weight f4 [128, 256]
00000000: bd4b 0000 8c04 0000 f519 0080 4084 0080
00000010: a7d4 0080 6a0c 0000 815c 0100 eeac 0000
00000020: 3576 0000 932d 0000 c622 0080 d281 0080
00000030: fc9a 0000 58a5 0000 2204 0000 35ae 0080
00000040: a548 0000 dae0 0080 b31d 0000 1569 0000
00000050: 5051 0000 e76b 0080 6166 0000 1359 0000
00000060: e15a 0000 6a3b 0080 d356 0000 aa57 0080
00000070: 2542 0080 36f5 0080 9069 0080 6746 0000
00000080: af41 0080 ad44 0080 345f 0080 cb24 0000
00000090: 3345 0000 7264 0080 aac7 0080 32ad 0080
000000a0: 0f12 0180 2526 0080 8111 0180 a16b 0000
000000b0: e408 0080 9905 0000 f359 0180 0e60 0080
000000c0: 9250 0080 f50d 0000 b9af 0000 1d3a 0000
000000d0: 116e 0080 691e 0080 5b15 0000 7c72 0080
000000e0: 1e6b 0080 652d 0000 90ac 0080 614e 0000
000000f0: fee8 0000 2803 0100 d62a 0000 5f21 0000
00000100: 374d 0080 3150 0000 5c58 0080 39dc 0080
00000110: 9488 0000 7b35 0080 f300 0000 767e 0000
00000120: c560 0000 2640 0000 e15b 0080 f528 0000
00000130: 741a 0080 bd08 0080 198f 0000 6d97 0000
00000140: 5804 0000 1691 0080 e352 0080 5472 0000
00000150: c862 0080 9817 0000 b675 0080 7f2e 0080
00000160: ee5b 0080 0404 0000 9175 0080 aece 0080
00000170: b48f 0000 5969 0080 113f 0080 a542 0000
00000180: c864 0000 fe54 0080 6a2d 0180 6a8b 0000
00000190: 5176 0000 c374 0080 2ebd 0080 7e52 0080
000001a0: 8b4d 0080 d801 0080 023f 0080 404a 0080
000001b0: 2a2d 0000 dd48 0080 0d30 0080 725b 0080
000001c0: 63a8 0000 e516 0000 3687 0000 dd91 0000
000001d0: ec2b 0080 d796 0000 309c 0000 5657 0000
000001e0: 580a 0000 c587 0000 8763 0080 b7c6 0080
000001f0: e85d 0080 9072 0080 c435 0080 9836 0080
00000200: 4573 0080 2d60 0000 0c2b 0000 b402 0080
00000210: 8e8e 0000 b52b 0100 1c71 0000 a655 0180
00000220: 996f 0080 eccb 0000 9a1e 0080 d52f 0000
00000230: 8c79 0000 ccab 0000 a10f 0080 99d7 0000
00000240: 5e26 0000 4240 0000 5335 0000 2f58 0000
00000250: 2c1d 0080 3e38 0080 9105 0080 557a 0000
00000260: f803 0080 0319 0080 2e21 0000 125f 0000
00000270: 4342 0080 a04b 0000 5e3c 0000 da61 0000
00000280: a153 0000 6f24 0000 f699 0080 6c4e 0080
00000290: 248e 0080 643f 0080 7457 0000 ed00 0100
000002a0: 9980 0000 581a 0080 672c 0080 eac7 0180
000002b0: 8cb8 0080 db0d 0080 679f 0080 f04b 0080
000002c0: bb0d 0100 b7b6 0000 3c62 0000 d804 0000
000002d0: fa05 0000 2c2e 0080 3290 0000 f232 0100
000002e0: d18a 0080 dc44 0080 053f 0080 d431 0080
000002f0: 7120 0080 ac2e 0080 6052 0080 0e4e 0080
00000300: 234f 0080 c623 0000 d622 0080 703f 0080
00000310: 5da2 0000 3c29 0000 3775 0000 4d49 0000
00000320: 39be 0000 9baf 0080 e662 0000 0d44 0000
00000330: 8b4a 0080 5e2b 0000 c364 0080 d90b 0180
00000340: 3c08 0000 2f5b 0080 bb41 0080 e29b 0000
00000350: 3452 0080 e60d 0000 1f87 0080 1bb1 0000
00000360: a7a8 0080 1d38 0000 4569 0080 d451 0000
00000370: dc65 0180 115f 0080 d02e 0000 39b1 0080
00000380: 3d34 0000 0a7e 0180 d940 0000 790c 0080
00000390: 8c2f 0000 c78b 0000 7d1d 0000 c584 0080
000003a0: 5808 0080 506f 0080 dbba 0080 2741 0000
000003b0: 9648 0000 c564 0080 772d 0080 5219 0000
000003c0: 6239 0080 6bf8 0080 5173 0080 ef5f 0100
000003d0: 3a9e 0000 fb96 0000 9967 0000 76fa 0080
000003e0: c21a 0000 c926 0080 c4a9 0080 b5b0 0080
000003f0: be05 0000 c315 0000 ad5d 0080 1dd2 0000
2.717e-41 1.631e-42 -9.312e-42 -4.7442e-41 -7.6285e-41 4.453e-42 1.2502e-40 6.2035e-41
4.2405e-41 1.6349e-41 -1.2474e-41 -4.6571e-41 5.5598e-41 5.9314e-41 1.483e-42 -6.2494e-41
2.606e-41 -8.0662e-41 1.0654e-41 3.7696e-41 2.917e-41 -3.8708e-41 3.6727e-41 3.1954e-41
3.2601e-41 -2.1314e-41 3.1147e-41 -3.1448e-41 -2.3728e-41 -8.7965e-41 -3.7869e-41 2.5256e-41
-2.3563e-41 -2.4636e-41 -3.4152e-41 1.3199e-41 2.4824e-41 -3.6033e-41 -7.1626e-41 -6.2131e-41
-9.8314e-41 -1.3684e-41 -9.8115e-41 3.861e-41 -3.19e-42 2.008e-42 -1.24103e-40 -3.4458e-41
-2.8903e-41 5.007e-42 6.3037e-41 2.0847e-41 -3.9484e-41 -1.0909e-41 7.661e-42 -4.1069e-41
-3.8426e-41 1.6284e-41 -6.1904e-41 2.8117e-41 8.3582e-41 9.2968e-41 1.5367e-41 1.1971e-41
-2.77e-41 2.8767e-41 -3.1697e-41 -7.9001e-41 4.8995e-41 -1.9185e-41 3.4e-43 4.5366e-41
3.4714e-41 2.3012e-41 -3.296e-41 1.4693e-41 -9.49e-42 -3.135e-42 5.1334e-41 5.4321e-41
1.558e-42 -5.2047e-41 -2.9734e-41 4.1013e-41 -3.5436e-41 8.464e-42 -4.2227e-41 -1.668e-41
-3.2978e-41 1.44e-42 -4.2175e-41 -7.4143e-41 5.1551e-41 -3.7792e-41 -2.2624e-41 2.3908e-41
3.6154e-41 -3.049e-41 -1.08127e-40 5.0012e-41 4.2444e-41 -4.1886e-41 -6.7865e-41 -2.9593e-41
-2.7817e-41 -6.61e-43 -2.2603e-41 -2.6636e-41 1.6202e-41 -2.6138e-41 -1.7237e-41 -3.2804e-41
6.0406e-41 8.213e-42 4.8505e-41 5.2326e-41 -1.5756e-41 5.4111e-41 5.603e-41 3.133e-41
3.71e-42 4.8705e-41 -3.5704e-41 -7.1285e-41 -3.3687e-41 -4.1097e-41 -1.9287e-41 -1.9585e-41
-4.1351e-41 3.4501e-41 1.5442e-41 -9.7e-43 5.1139e-41 1.07515e-40 4.0576e-41 -1.2256e-40
-4.0034e-41 7.3153e-41 -1.0978e-41 1.7159e-41 4.3603e-41 6.1629e-41 -5.607e-42 7.7342e-41
1.3764e-41 2.3051e-41 1.9129e-41 3.1634e-41 -1.0465e-41 -2.0176e-41 -1.997e-42 4.3884e-41
-1.424e-42 -8.973e-42 1.1903e-41 3.4105e-41 -2.377e-41 2.7129e-41 2.1656e-41 3.5103e-41
3e-41 1.307e-41 -5.5231e-41 -2.8132e-41 -5.099e-41 -2.274e-41 3.1372e-41 9.2168e-41
4.6132e-41 -9.45e-42 -1.5929e-41 -1.63551e-40 -6.6203e-41 -4.97e-42 -5.7183e-41 -2.7241e-41
9.6761e-41 6.5546e-41 3.524e-41 1.738e-42 2.144e-42 -1.6563e-41 5.1728e-41 1.10111e-40
-4.9798e-41 -2.4702e-41 -2.2607e-41 -1.7875e-41 -1.1638e-41 -1.6743e-41 -2.955e-41 -2.8001e-41
-2.8389e-41 1.2833e-41 -1.2497e-41 -2.2757e-41 5.8245e-41 1.4792e-41 4.2049e-41 2.6295e-41
6.8239e-41 -6.2995e-41 3.5478e-41 2.4412e-41 -2.6741e-41 1.5557e-41 -3.6146e-41 -9.6086e-41
2.954e-42 -3.271e-41 -2.358e-41 5.592e-41 -2.9489e-41 4.986e-42 -4.8472e-41 6.3533e-41
-6.0501e-41 2.013e-41 -3.7764e-41 2.9354e-41 -1.28376e-40 -3.4103e-41 1.6793e-41 -6.3576e-41
1.874e-41 -1.3705e-40 2.3263e-41 -4.474e-42 1.7057e-41 5.0143e-41 1.0578e-41 -4.7629e-41
-2.993e-42 -3.9931e-41 -6.7031e-41 2.3372e-41 2.6039e-41 -3.6149e-41 -1.631e-41 9.083e-42
-2.0585e-41 -8.9116e-41 -4.1368e-41 1.2625e-40 5.6761e-41 5.4162e-41 3.7164e-41 -8.9848e-41
9.599e-42 -1.3913e-41 -6.09e-41 -6.339e-41 2.06e-42 7.807e-42 -3.3605e-41 7.5374e-41

convs.1.nn.lins.0.bias f4 [128]
00000000: 3e35 0000 5936 0080 981f 0080 a80b 0080
00000010: 1e6b 0000 095d 0080 5341 0080 a226 0080
00000020: 0e6e 0000 0137 0000 922c 0000 465a 0000
00000030: 8c62 0000 e06a 0080 3613 0080 2225 0000
00000040: a13c 0080 af80 0080 eef4 0000 497e 0000
00000050: 4e0b 0100 408c 0000 757a 0000 604e 0000
00000060: 0a71 0080 9257 0000 241c 0000 4e44 0080
00000070: de07 0100 bf2d 0000 f46d 0080 2fac 0000
00000080: 8805 0180 010c 0080 164a 0000 0704 0080
00000090: 6f6b 0000 f365 0000 d248 0080 c27b 0000
000000a0: 415c 0000 297b 0080 2da0 0000 1fe4 0000
000000b0: d312 0000 44a7 0000 a428 0080 8412 0080
000000c0: f09c 0000 8a65 0080 ea68 0000 f674 0080
000000d0: 77a5 0080 2262 0080 5239 0000 bc03 0000
000000e0: bb2d 0080 8b72 0000 7923 0080 285e 0000
000000f0: b5a1 0080 3750 0080 785f 0000 1066 0080
00000100: 8f0f 0000 20c0 0080 2a34 0080 880b 0000
00000110: 7086 0080 0c24 0080 b149 0000 ed7c 0080
00000120: d13e 0000 b63c 0080 953a 0080 6779 0000
00000130: af1e 0000 6369 0080 0d3a 0080 e81e 0080
00000140: 6315 0100 7915 0000 6e45 0000 dc30 0080
00000150: 34de 0000 bf43 0080 9280 0080 f313 0100
00000160: 770f 0000 2a33 0080 8732 0080 b12f 0080
00000170: 43c8 0000 83f8 0080 713d 0080 3448 0100
00000180: 6f18 0000 6db5 0180 f739 0080 d635 0100
00000190: b97b 0000 4f3f 0080 76b3 0000 f456 0000
000001a0: d25b 0080 2e3d 0080 b9d5 0000 d24e 0080
000001b0: 1558 0000 cdc3 0080 5414 0000 4860 0000
000001c0: 9b0b 0080 ae70 0080 997f 0080 0338 0000
000001d0: 3759 0000 6353 0080 5287 0000 a104 0000
000001e0: de37 0000 7321 0000 7f68 0000 9106 0080
000001f0: f530 0080 2624 0000 6039 0080 0965 0080
1.91e-41 -1.9496e-41 -1.1334e-41 -4.181e-42 3.8426e-41 -3.3375e-41 -2.3434e-41 -1.3859e-41
3.948e-41 1.9732e-41 1.5989e-41 3.2384e-41 3.5352e-41 -3.834e-41 -6.892e-42 1.3321e-41
-2.175e-41 -4.6163e-41 8.7864e-41 4.5303e-41 9.5891e-41 5.0312e-41 4.393e-41 2.8116e-41
-4.0551e-41 3.1414e-41 1.0095e-41 -2.4503e-41 9.4658e-41 1.641e-41 -3.9444e-41 6.1768e-41
-9.382e-41 -4.306e-42 2.6577e-41 -1.445e-42 3.854e-41 3.6572e-41 -2.6123e-41 4.4396e-41
3.3094e-41 -4.4182e-41 5.746e-41 8.1834e-41 6.753e-42 6.0004e-41 -1.4579e-41 -6.642e-42
5.6299e-41 -3.6425e-41 3.7636e-41 -4.1958e-41 -5.9358e-41 -3.5203e-41 2.0563e-41 1.34e-42
-1.6405e-41 4.109e-41 -1.2725e-41 3.3777e-41 -5.801e-41 -2.8776e-41 3.4248e-41 -3.6613e-41
5.581e-42 -6.8921e-41 -1.8713e-41 4.137e-42 -4.8227e-41 -1.2931e-41 2.6435e-41 -4.4815e-41
2.2534e-41 -2.1779e-41 -2.1015e-41 4.3551e-41 1.1007e-41 -3.7806e-41 -2.0825e-41 -1.1087e-41
9.9508e-41 7.703e-42 2.4907e-41 -1.7527e-41 7.9711e-41 -2.4303e-41 -4.6122e-41 9.8992e-41
5.548e-42 -1.8354e-41 -1.8126e-41 -1.7108e-41 7.184e-41 -8.9149e-41 -2.2041e-41 1.17737e-40
8.765e-42 -1.56919e-40 -2.0794e-41 1.11148e-40 4.4383e-41 -2.2711e-41 6.4378e-41 3.1193e-41
-3.2939e-41 -2.1947e-41 7.6669e-41 -2.8275e-41 3.1598e-41 -7.024e-41 7.292e-42 3.4539e-41
-4.163e-42 -4.0422e-41 -4.5773e-41 2.0093e-41 3.2004e-41 -2.9914e-41 4.8544e-41 1.66e-42
2.0041e-41 1.2e-41 3.7486e-41 -2.356e-42 -1.7562e-41 1.2968e-41 -2.0582e-41 -3.6245e-41

convs.1.nn.lins.1.weight f4 [128, 128]
00000000: 71d2 0080 b029 0000 d14a 0080 8141 0080
00000010: 0f2c 0180 4574 0080 1b05 0080 0e49 0080
00000020: 9a0d 0000 cdac 0080 b70e 0080 bb1d 0000
00000030: 1204 0100 601c 0000 5fac 0080 1704 0080
00000040: 854e 0080 be78 0080 3c8c 0080 8f18 0080
00000050: 0412 0000 5a0d 0080 af1a 0080 e72e 0000
00000060: f637 0080 9598 0080 9164 0080 6826 0000
00000070: 1b7b 0080 d135 0080 691f 0000 1833 0000
00000080: bf22 0000 ea02 0080 b15e 0080 fdaa 0000
00000090: 432f 0000 520d 0000 2493 0080 6494 0000
000000a0: a1ec 0080 6e66 0000 d978 0000 6444 0000
000000b0: 0015 0080 dba7 0000 563b 0100 9fb4 0080
000000c0: 544d 0080 2750 0080 fd40 0080 303c 0000
000000d0: aa1d 0000 db23 0080 9bc1 0000 1d1b 0080
000000e0: d115 0080 cf41 0080 320c 0080 320a 0080
000000f0: e511 0000 7412 0080 0b1c 0000 ef4f 0080
00000100: c335 0080 426d 0080 b53c 0080 c056 0000
00000110: 3381 0080 c415 0080 0700 0000 4431 0000
00000120: 6b76 0000 6e66 0080 4253 0000 3f49 0000
00000130: 5c2e 0180 081f 0000 0c4b 0080 325b 0000
00000140: 5475 0100 4f08 0080 78f5 0000 3843 0080
00000150: 3a53 0000 aa5d 0080 e002 0000 7321 0080
00000160: cb1c 0080 7e4d 0080 e22b 0000 5a47 0000
00000170: f04f 0080 5495 0080 0254 0080 762f 0080
00000180: a052 0080 a202 0080 ec0e 0000 e21b 0000
00000190: 0e3c 0000 af08 0080 eca2 0080 e81b 0000
000001a0: 0249 0180 bb2d 0080 2fd4 0080 4ac8 0080
000001b0: 5040 0080 4c1e 0000 4312 0080 df42 0000
000001c0: 8231 0080 3f0c 0000 101c 0000 c13d 0000
000001d0: 0103 0000 5c56 0000 3159 0080 0b00 0080
000001e0: 8832 0000 e92c 0000 2472 0080 e34e 0080
000001f0: 7f1a 0080 f744 0000 2624 0080 7e68 0080
00000200: f347 0000 2814 0000 a84a 0080 6d41 0080
00000210: 8566 0000 636f 0000 7c83 0080 2e56 0080
00000220: 9a14 0080 fb3d 0000 3537 0080 b99a 0080
00000230: c43b 0080 0220 0000 3939 0000 e645 0080
00000240: c72a 0080 d17d 0000 4cb0 0080 c961 0080
00000250: 4d68 0000 6d4a 0080 0356 0080 2d45 0000
00000260: 3c4d 0000 dd06 0080 ea21 0000 436b 0000
00000270: ea22 0080 b239 0100 ed40 0080 c742 0080
00000280: f191 0000 4a6d 0000 8559 0000 763c 0080
00000290: ce57 0000 52ae 0000 ea08 0080 1385 0000
000002a0: 522c 0000 6733 0180 36a5 0080 1f45 0000
000002b0: 9c37 0080 b255 0000 91b0 0000 d06f 0080
000002c0: 4a6e 0000 b836 0080 1ed8 0000 1e2e 0080
000002d0: 685c 0000 ce32 0080 510a 0000 0019 0080
000002e0: 5933 0000 053f 0080 681d 0080 9c41 0000
000002f0: 8193 0080 8c0c 0080 0b60 0080 fd43 0080
00000300: d713 0000 fc5a 0080 5f3f 0080 660e 0080
00000310: e742 0000 ee20 0000 c450 0000 9843 0080
00000320: 230e 0000 d41e 0000 bd85 0000 7c4b 0080
00000330: e741 0080 604f 0000 9101 0000 be53 0080
00000340: ed70 0080 6776 0000 cba8 0080 7043 0180
00000350: bfa2 0180 586a 0080 2438 0000 cd39 0080
00000360: 5337 0080 7837 0000 9604 0000 b331 0000
00000370: 7a40 0000 c95f 0000 9c49 0080 6819 0080
00000380: 7820 0000 0c21 0080 0e13 0000 3000 0080
00000390: 2d0d 0080 8daf 0000 5ba7 0000 5613 0080
000003a0: 0a63 0080 668a 0000 8f63 0000 3740 0000
000003b0: db17 0080 7d33 0000 3e4f 0000 990c 0080
000003c0: 4b61 0000 ad41 0080 3245 0080 eac2 0080
000003d0: 4222 0000 135c 0080 f01f 0000 6f51 0080
000003e0: c361 0080 7a00 0000 a10d 0080 6e24 0000
000003f0: 1f3a 0000 e1b9 0000 e905 0080 0436 0000
-7.5492e-41 1.4955e-41 -2.6839e-41 -2.3498e-41 -1.07641e-40 -4.171e-41 -1.831e-42 -2.6207e-41
4.88e-42 -6.1989e-41 -5.279e-42 1.0665e-41 9.3296e-41 1.0179e-41 -6.1835e-41 -1.467e-42
-2.8168e-41 -4.3314e-41 -5.0307e-41 -8.81e-42 6.463e-42 -4.79e-42 -9.572e-42 1.6825e-41
-2.0075e-41 -5.4736e-41 -3.6076e-41 1.3778e-41 -4.4162e-41 -1.9306e-41 1.1268e-41 1.8329e-41
1.2465e-41 -1.045e-42 -3.3969e-41 6.1339e-41 1.6954e-41 4.778e-42 -5.2784e-41 5.3233e-41
-8.4886e-41 3.6745e-41 4.3352e-41 2.4534e-41 -7.533e-42 6.0215e-41 1.13121e-40 -6.4795e-41
-2.774e-41 -2.8753e-41 -2.3313e-41 2.1591e-41 1.0641e-41 -1.2863e-41 6.9453e-41 -9.726e-42
-7.826e-42 -2.3608e-41 -4.375e-42 -3.657e-42 6.42e-42 -6.62e-42 1.006e-41 -2.8675e-41
-1.9286e-41 -3.9194e-41 -2.1778e-41 3.112e-41 -4.6348e-41 -7.808e-42 1e-44 1.7673e-41
4.248e-41 -3.6745e-41 2.9867e-41 2.6276e-41 -1.08466e-40 1.1132e-41 -2.6922e-41 3.2715e-41
1.33925e-40 -2.98e-42 8.8058e-41 -2.4114e-41 2.9856e-41 -3.36e-41 1.031e-42 -1.2e-41
-1.0329e-41 -2.7799e-41 1.5742e-41 2.5596e-41 -2.8676e-41 -5.3569e-41 -3.0136e-41 -1.7026e-41
-2.964e-41 -9.44e-43 5.353e-42 1.0002e-41 2.1544e-41 -3.115e-42 -5.8445e-41 1.0011e-41
-1.18026e-40 -1.6405e-41 -7.6117e-41 -7.185e-41 -2.3071e-41 1.0868e-41 -6.551e-42 2.3989e-41
-1.776e-41 4.393e-42 1.0067e-41 2.2153e-41 1.078e-42 3.098e-41 -3.1996e-41 -1.5e-44
1.8127e-41 1.6111e-41 -4.0946e-41 -2.8299e-41 -9.505e-42 2.474e-41 -1.2968e-41 -3.7485e-41
2.581e-41 7.23e-42 -2.6782e-41 -2.347e-41 3.6777e-41 3.9958e-41 -4.7168e-41 -3.0915e-41
-7.39e-42 2.2234e-41 -1.9805e-41 -5.5504e-41 -2.144e-41 1.1482e-41 2.0528e-41 -2.5075e-41
-1.5346e-41 4.5134e-41 -6.3243e-41 -3.5079e-41 3.7416e-41 -2.6699e-41 -3.0855e-41 2.4816e-41
2.7706e-41 -2.462e-42 1.2166e-41 3.8478e-41 -1.2525e-41 1.12533e-40 -2.3291e-41 -2.3955e-41
5.2354e-41 3.9206e-41 3.2114e-41 -2.1689e-41 3.1498e-41 6.2534e-41 -3.198e-42 4.7738e-41
1.5899e-41 -1.10275e-40 -5.9267e-41 2.4796e-41 -1.9949e-41 3.0742e-41 6.334e-41 -4.0111e-41
3.9564e-41 -1.963e-41 7.7528e-41 -1.6544e-41 3.3149e-41 -1.8225e-41 3.701e-42 -8.968e-42
1.842e-41 -2.2607e-41 -1.0549e-41 2.3536e-41 -5.2914e-41 -4.501e-42 -3.4454e-41 -2.439e-41
7.117e-42 -3.2639e-41 -2.2733e-41 -5.165e-42 2.4e-41 1.1813e-41 2.8973e-41 -2.4248e-41
5.071e-42 1.1059e-41 4.7976e-41 -2.7079e-41 -2.3641e-41 2.8474e-41 5.62e-43 -3.0041e-41
-4.051e-41 4.2475e-41 -6.0552e-41 -1.16028e-40 -1.50218e-40 -3.8149e-41 2.014e-41 -2.0735e-41
-1.9847e-41 1.9898e-41 1.645e-42 1.7829e-41 2.313e-41 3.4361e-41 -2.6406e-41 -9.114e-42
1.1648e-41 -1.1855e-41 6.836e-42 -6.7e-44 -4.727e-42 6.2976e-41 6.0036e-41 -6.936e-42
-3.5529e-41 4.9648e-41 3.5715e-41 2.3036e-41 -8.558e-42 1.847e-41 2.8427e-41 -4.519e-42
3.4902e-41 -2.356e-41 -2.4823e-41 -6.9922e-41 1.229e-41 -3.303e-41 1.1457e-41 -2.9213e-41
-3.507e-41 1.71e-43 -4.889e-42 1.3069e-41 2.085e-41 6.6681e-41 -2.12e-42 1.9377e-41

convs.1.nn.lins.1.bias f4 [128]
00000000: ba10 0180 7fbd 0080 060d 0000 ea61 0000
00000010: 65b2 0080 912a 0000 c761 0080 684a 0000
00000020: 9f54 0080 3c51 0000 b920 0000 fc57 0080
00000030: d175 0080 f125 0000 310a 0080 030f 0080
00000040: 7d37 0180 8317 0000 f954 0080 2f3c 0080
00000050: 3b02 0000 6f19 0000 877d 0000 d99e 0080
00000060: 7352 0000 7617 0080 e434 0080 9bb5 0080
00000070: cf00 0000 2d05 0180 cf36 0000 d055 0080
00000080: 793a 0000 5e64 0000 de94 0000 5b2b 0000
00000090: 454f 0000 0f10 0080 5245 0080 7339 0080
000000a0: fc74 0080 4eca 0000 a706 0080 4a47 0000
000000b0: 1e1c 0100 4516 0080 e64e 0080 f023 0080
000000c0: a715 0080 3e34 0080 9a69 0000 490a 0000
000000d0: f439 0000 e771 0080 5f6f 0080 51e6 0080
000000e0: 1e2f 0000 8f1c 0080 3234 0000 c738 0080
000000f0: af19 0000 852e 0080 d60b 0000 ae26 0000
00000100: 3920 0000 016f 0000 c0be 0080 f987 0080
00000110: fa8b 0000 1809 0080 0477 0080 3168 0000
00000120: 9c82 0000 cb31 0080 1c15 0000 5183 0000
00000130: 0d11 0000 8622 0080 ce7c 0000 600f 0080
00000140: 8e82 0080 9441 0000 7eaa 0080 d4a7 0080
00000150: 09cd 0000 a901 0080 933f 0000 e737 0000
00000160: f51c 0080 b931 0000 95e3 0080 f843 0080
00000170: 1928 0080 923c 0080 a002 0080 a82b 0080
00000180: c2f7 0000 dd2a 0080 6b0f 0000 818f 0080
00000190: 5a0b 0080 b100 0000 7535 0000 6456 0080
000001a0: ca5a 0000 ad11 0000 1622 0000 1a43 0000
000001b0: b00d 0080 437c 0000 a31e 0180 7b0f 0000
000001c0: 501b 0180 535d 0000 1b63 0080 dfe0 0000
000001d0: f80f 0100 4e5a 0080 dd6d 0080 053f 0000
000001e0: 3768 0000 b41b 0000 dd4c 0000 a360 0000
000001f0: 4175 0000 4426 0000 e853 0000 74a5 0080
-9.7836e-41 -6.7978e-41 4.672e-42 3.5125e-41 -6.3996e-41 1.527e-41 -3.5076e-41 2.6692e-41
-3.0356e-41 2.9141e-41 1.1739e-41 -3.1563e-41 -4.2265e-41 1.3611e-41 -3.656e-42 -5.385e-42
-1.11741e-40 8.434e-42 -3.0482e-41 -2.159e-41 8e-43 9.124e-42 4.5031e-41 -5.6984e-41
2.9577e-41 -8.416e-42 -1.8974e-41 -6.5148e-41 2.9e-43 -9.3692e-41 1.9662e-41 -3.0784e-41
2.0976e-41 3.6005e-41 5.3403e-41 1.5553e-41 2.8437e-41 -5.761e-42 -2.4867e-41 -2.0609e-41
-4.1966e-41 7.2573e-41 -2.386e-42 2.5574e-41 1.01922e-40 -7.989e-42 -2.8303e-41 -1.2892e-41
-7.767e-42 -1.8741e-41 3.7883e-41 3.69e-42 2.079e-41 -4.086e-41 -3.9952e-41 -8.2622e-41
1.6902e-41 -1.0245e-41 1.8724e-41 -2.0368e-41 9.214e-42 -1.6688e-41 4.246e-42 1.3876e-41
1.156e-41 3.982e-41 -6.8428e-41 -4.8778e-41 5.0214e-41 -3.262e-42 -4.2695e-41 3.7377e-41
4.6854e-41 -1.7862e-41 7.573e-42 4.7107e-41 6.117e-42 -1.2385e-41 4.4771e-41 -5.516e-42
-4.6834e-41 2.3525e-41 -6.1161e-41 -6.0205e-41 7.3553e-41 -5.96e-43 2.2806e-41 2.0054e-41
-1.0388e-41 1.7837e-41 -8.1641e-41 -2.4383e-41 -1.4384e-41 -2.1729e-41 -9.42e-43 -1.5661e-41
8.8879e-41 -1.5376e-41 5.531e-42 -5.148e-41 -4.072e-42 2.48e-43 1.9177e-41 -3.0991e-41
3.2569e-41 6.341e-42 1.2228e-41 2.4072e-41 -4.91e-42 4.4577e-41 -1.02826e-40 5.553e-42
-1.01633e-40 3.3478e-41 -3.5552e-41 8.0669e-41 9.7564e-41 -3.2395e-41 -3.9412e-41 2.2607e-41
3.7385e-41 9.938e-42 2.7573e-41 3.4667e-41 4.2063e-41 1.3727e-41 3.01e-41 -5.9353e-41

convs.2.nn.lins.0.weight f4 [128, 256]
00000000: 8e13 0000 8b4c 0000 ceff 0000 a277 0000
00000010: 5053 0000 5d66 0000 0e13 0080 966e 0080
00000020: b71e 0000 8a65 0080 ad17 0000 8e4f 0080
00000030: f6d3 0080 0a69 0000 fc01 0080 2151 0080
00000040: 3502 0000 5e48 0080 ea3d 0000 da2f 0000
00000050: b054 0080 9a0b 0000 e785 0080 8f8d 0000
00000060: 1377 0000 4b03 0100 ffea 0080 ae13 0000
00000070: 5c1e 0000 b8ae 0000 ae4f 0000 b333 0000
00000080: c733 0000 1362 0000 ea61 0000 35e4 0080
00000090: 711d 0100 d532 0080 3b8f 0000 2126 0080
000000a0: 260c 0000 e651 0080 ab3a 0080 e039 0080
000000b0: 3432 0000 842b 0000 a297 0000 6f3a 0000
000000c0: edf1 0000 890b 0000 5058 0080 bfe4 0000
000000d0: 0664 0000 1771 0000 895b 0000 1670 0180
000000e0: d6c0 0080 071e 0000 057b 0000 ab70 0080
000000f0: dd43 0000 383b 0080 b339 0080 058d 0080
00000100: 6813 0000 5408 0080 0057 0000 b04e 0000
00000110: ecb1 0000 5710 0000 9a2b 0000 d125 0000
00000120: e331 0080 ee32 0080 a415 0080 7b06 0080
00000130: 7c12 0000 0387 0000 ca94 0080 4bea 0080
00000140: 8825 0000 4d29 0000 ce01 0080 8f74 0080
00000150: dd42 0000 6c8d 0080 8f31 0100 ed40 0000
00000160: c714 0080 8b54 0000 a490 0080 db46 0000
00000170: 2b58 0000 cd94 0000 733f 0080 0c2d 0080
00000180: 8044 0080 f91c 0000 fa0d 0080 97c5 0080
00000190: 327c 0080 692e 0080 3d5d 0000 1030 0000
000001a0: e23b 0180 7416 0080 d426 0000 1ba7 0000
000001b0: 54b4 0100 c301 0100 377a 0000 8a86 0080
000001c0: e000 0080 7890 0080 f13a 0000 9532 0080
000001d0: a653 0080 4b95 0080 8f5d 0000 7482 0080
000001e0: a7e3 0000 7716 0080 d76d 0000 9ba0 0080
000001f0: 4963 0080 ea38 0000 3d30 0080 ee46 0000
00000200: 343b 0080 6844 0000 5d31 0000 0f55 0080
00000210: 936a 0000 4726 0080 6d0c 0100 b851 0000
00000220: 0b40 0080 004d 0080 7f60 0080 fa24 0000
00000230: d851 0080 c56b 0000 4b46 0000 e643 0000
00000240: 9250 0000 1c0d 0080 e218 0000 be11 0080
00000250: db4d 0080 372d 0080 5e7d 0080 6d21 0000
00000260: 7421 0080 df09 0080 7806 0000 cd26 0000
00000270: 7093 0080 3ca8 0080 a354 0080 f040 0080
00000280: c891 0080 8d4e 0080 7341 0000 cd31 0080
00000290: ca0f 0080 ef77 0000 720e 0080 2c4e 0000
000002a0: c65e 0000 d840 0080 e5bd 0080 a518 0000
000002b0: e736 0080 8d62 0080 8a48 0080 be1c 0080
000002c0: 9195 0000 3c6d 0000 88da 0080 d93f 0000
000002d0: a101 0080 1735 0080 e48a 0080 9626 0080
000002e0: 8282 0080 6f47 0080 ad0e 0080 3a5b 0080
000002f0: 2a30 0080 872c 0000 8c3c 0080 de09 0080
00000300: 8b0e 0080 b844 0080 3d96 0000 25aa 0000
00000310: 6d6e 0080 743b 0080 2745 0000 5e3f 0080
00000320: a545 0080 5011 0000 b870 0080 b545 0080
00000330: fe28 0080 4b1f 0080 471c 0080 6a97 0080
00000340: 866f 0000 0d5f 0080 754b 0000 ce2d 0080
00000350: 26b8 0000 2313 0080 4126 0080 1a6d 0000
00000360: ae3c 0000 1ab2 0000 9420 0000 0345 0000
00000370: 820c 0000 7d4b 0080 5f22 0000 ee3e 0080
00000380: 0e72 0080 72d6 0000 039e 0000 4551 0080
00000390: 7b4f 0080 818b 0080 d316 0080 285e 0080
000003a0: 8b68 0180 a64e 0000 fa1b 0080 a415 0080
000003b0: af51 0000 6381 0080 5a05 0080 896c 0080
000003c0: 03a7 0000 f847 0080 a014 0080 bd41 0000
000003d0: 0435 0080 3c4f 0080 4ba2 0000 0311 0080
000003e0: e697 0080 3972 0080 c983 0080 ff60 0080
000003f0: 832d 0000 1f4d 0000 f323 0000 6e47 0000
7.015e-42 2.7458e-41 9.1765e-41 4.2916e-41 2.9887e-41 3.6721e-41 -6.836e-42 -3.9671e-41
1.1018e-41 -3.6425e-41 8.493e-42 -2.8539e-41 -7.6037e-41 3.7681e-41 -7.12e-43 -2.9104e-41
7.92e-43 -2.596e-41 2.221e-41 1.7166e-41 -3.038e-41 4.162e-42 -4.8035e-41 5.0782e-41
4.2716e-41 9.3017e-41 -8.4301e-41 7.06e-42 1.0891e-41 6.2677e-41 2.8584e-41 1.8546e-41
1.8574e-41 3.5182e-41 3.5125e-41 -8.1865e-41 1.02397e-40 -1.8235e-41 5.1381e-41 -1.3678e-41
4.358e-42 -2.938e-41 -2.1046e-41 -2.0762e-41 1.801e-41 1.561e-41 5.4396e-41 2.0962e-41
8.6787e-41 4.138e-42 -3.168e-41 8.2059e-41 3.5882e-41 4.0569e-41 3.2837e-41 -1.32044e-40
-6.9176e-41 1.0772e-41 4.4131e-41 -4.0418e-41 2.4345e-41 -2.1244e-41 -2.0699e-41 -5.0588e-41
6.962e-42 -2.988e-42 3.121e-41 2.8228e-41 6.3826e-41 5.862e-42 1.5641e-41 1.3566e-41
-1.7896e-41 -1.827e-41 -7.763e-42 -2.325e-42 6.631e-42 4.8433e-41 -5.3375e-41 -8.4048e-41
1.3464e-41 1.4816e-41 -6.47e-43 -4.1813e-41 2.3986e-41 -5.0733e-41 1.09614e-40 2.3291e-41
-7.454e-42 3.0328e-41 -5.1887e-41 2.5418e-41 3.1629e-41 5.338e-41 -2.2761e-41 -1.616e-41
-2.4573e-41 1.0393e-41 -5.014e-42 -7.0882e-41 -4.4553e-41 -1.6649e-41 3.3448e-41 1.7242e-41
-1.13317e-40 -8.055e-42 1.3929e-41 5.9946e-41 1.56525e-40 9.2467e-41 4.3842e-41 -4.8264e-41
-3.14e-43 -5.1826e-41 2.1144e-41 -1.8145e-41 -3.0007e-41 -5.3556e-41 3.3562e-41 -4.6798e-41
8.1666e-41 -8.059e-42 3.9403e-41 -5.7614e-41 -3.5617e-41 2.0417e-41 -1.7305e-41 2.5445e-41
-2.1238e-41 2.454e-41 1.7708e-41 -3.0513e-41 3.8232e-41 -1.3731e-41 9.6293e-41 2.9315e-41
-2.2974e-41 -2.7622e-41 -3.4616e-41 1.3265e-41 -2.936e-41 3.866e-41 2.5216e-41 2.4357e-41
2.8903e-41 -4.703e-42 8.926e-42 -6.365e-42 -2.7929e-41 -1.622e-41 -4.4973e-41 1.1991e-41
-1.2001e-41 -3.541e-42 2.32e-42 1.3919e-41 -5.289e-41 -6.0351e-41 -3.0362e-41 -2.3295e-41
-5.2296e-41 -2.8179e-41 2.3479e-41 -1.7865e-41 -5.664e-42 4.3024e-41 -5.182e-42 2.8043e-41
3.3998e-41 -2.3262e-41 -6.8121e-41 8.841e-42 -1.9695e-41 -3.5353e-41 -2.6022e-41 -1.0311e-41
5.3654e-41 3.9186e-41 -7.8394e-41 2.2904e-41 -5.84e-43 -1.9045e-41 -4.9825e-41 -1.3842e-41
-4.6817e-41 -2.5626e-41 -5.265e-42 -3.2726e-41 -1.7278e-41 1.5973e-41 -2.172e-41 -3.54e-42
-5.217e-42 -2.4652e-41 5.3895e-41 6.1036e-41 -3.9613e-41 -2.1328e-41 2.4807e-41 -2.2732e-41
-2.4984e-41 6.21e-42 -4.0436e-41 -2.5006e-41 -1.4705e-41 -1.1226e-41 -1.0144e-41 -5.4317e-41
4.0007e-41 -3.4098e-41 2.7069e-41 -1.6432e-41 6.606e-41 -6.865e-42 -1.3723e-41 3.9138e-41
2.1768e-41 6.3891e-41 1.1687e-41 2.4757e-41 4.487e-42 -2.708e-41 1.233e-41 -2.2575e-41
-4.0915e-41 7.6928e-41 5.6684e-41 -2.9154e-41 -2.8512e-41 -5.0045e-41 -8.188e-42 -3.3777e-41
-1.29338e-40 2.8214e-41 -1.0036e-41 -7.763e-42 2.9303e-41 -4.6415e-41 -1.92e-42 -3.8935e-41
5.9913e-41 -2.5818e-41 -7.399e-42 2.3582e-41 -1.9018e-41 -2.8424e-41 5.822e-41 -6.103e-42
-5.4491e-41 -4.0975e-41 -4.7276e-41 -3.4796e-41 1.6327e-41 2.7666e-41 1.2896e-41 2.5624e-41

convs.2.nn.lins.0.bias f4 [128]
00000000: 896c 0080 5c61 0000 8cb6 0080 f653 0080
00000010: 1b1d 0000 b663 0000 e918 0080 e848 0000
00000020: b133 0000 467a 0000 fa2a 0080 2b33 0000
00000030: f63a 0000 284d 0080 d46a 0080 8358 0000
00000040: b26d 0080 118d 0080 5c13 0000 bd5a 0000
00000050: 2101 0000 d457 0080 c203 0080 9162 0080
00000060: e23b 0080 e90f 0000 1d76 0080 c93d 0080
00000070: b924 0000 b286 0000 6760 0080 5948 0000
00000080: ec43 0080 b506 0000 8b0f 0080 66d1 0080
00000090: 1c6f 0000 0b44 0000 5720 0000 7d39 0000
000000a0: 00e3 0080 fc3f 0080 c719 0080 820e 0000
000000b0: 6c52 0080 1cad 0000 9324 0000 9838 0080
000000c0: 1003 0000 575a 0080 9959 0000 b031 0000
000000d0: 7f08 0080 3b1a 0080 fa47 0100 5640 0000
000000e0: ada0 0080 1c16 0000 422a 0080 6c25 0000
000000f0: ce46 0100 4060 0000 4d4d 0000 8057 0080
00000100: 017c 0000 2773 0000 f312 0180 2432 0080
00000110: fd36 0000 bd43 0000 ed30 0080 9a67 0000
00000120: 693b 0000 274f 0080 fc10 0000 a739 0000
00000130: 0e55 0080 fa0e 0000 f040 0080 a711 0080
00000140: c500 0000 8971 0000 d148 0080 2d8f 0080
00000150: 0f5a 0080 626c 0000 7b45 0000 a8a8 0000
00000160: 115c 0000 ad34 0000 763a 0080 2940 0080
00000170: ba39 0080 c2af 0080 2977 0080 0a96 0080
00000180: 7732 0080 3069 0000 5159 0080 dc24 0080
00000190: 591b 0000 6b3d 0000 ca7c 0000 eba8 0080
000001a0: b406 0180 1255 0000 ec20 0000 a63e 0080
000001b0: a930 0080 e2c3 0000 bc45 0080 0b3f 0080
000001c0: 347d 0080 8f35 0080 b758 0000 3e06 0000
000001d0: 6f5f 0000 f930 0000 f92b 0000 9f1e 0080
000001e0: 720b 0080 0445 0000 e950 0000 77f1 0000
000001f0: b21e 0000 a84e 0000 2600 0000 5c2e 0000
-3.8935e-41 3.4926e-41 -6.5485e-41 -3.012e-41 1.0441e-41 3.577e-41 -8.936e-42 2.6154e-41
1.8543e-41 4.3863e-41 -1.5417e-41 1.8356e-41 2.1151e-41 -2.7678e-41 -3.8323e-41 3.1752e-41
-3.9351e-41 -5.0605e-41 6.945e-42 3.2551e-41 4.05e-43 -3.1507e-41 -1.348e-42 -3.5359e-41
-2.1482e-41 5.707e-42 -4.2371e-41 -2.2164e-41 1.3174e-41 4.832e-41 -3.4583e-41 2.5953e-41
-2.4366e-41 2.406e-42 -5.576e-42 -7.5118e-41 3.9859e-41 2.4409e-41 1.1601e-41 2.0623e-41
-8.1432e-41 -2.2953e-41 -9.247e-42 5.204e-42 -2.9567e-41 6.21e-41 1.312e-41 -2.0302e-41
1.099e-42 -3.2408e-41 3.2142e-41 1.7825e-41 -3.048e-42 -9.41e-42 1.17656e-40 2.308e-41
-5.764e-41 7.931e-42 -1.5159e-41 1.3424e-41 1.17235e-40 3.4528e-41 2.773e-41 -3.1389e-41
4.4484e-41 4.1309e-41 -9.8633e-41 -1.7987e-41 1.9726e-41 2.43e-41 -1.7551e-41 3.7165e-41
2.1312e-41 -2.8395e-41 6.093e-42 2.0682e-41 -3.0512e-41 5.373e-42 -2.3295e-41 -6.332e-42
2.76e-43 4.0729e-41 -2.6122e-41 -5.1362e-41 -3.2307e-41 3.888e-41 2.4925e-41 6.0502e-41
3.3027e-41 1.8897e-41 -2.0972e-41 -2.3016e-41 -2.0708e-41 -6.305e-41 -4.2747e-41 -5.3824e-41
-1.8103e-41 3.7734e-41 -3.204e-41 -1.3223e-41 9.81e-42 2.2033e-41 4.4766e-41 -6.0596e-41
-9.424e-41 3.0517e-41 1.181e-41 -2.2474e-41 -1.7456e-41 7.027e-41 -2.5016e-41 -2.2616e-41
-4.4914e-41 -1.9213e-41 3.1825e-41 2.239e-42 3.4235e-41 1.7568e-41 1.5774e-41 -1.0985e-41
-4.106e-42 2.4758e-41 2.9025e-41 8.6621e-41 1.1011e-41 2.8217e-41 5.3e-44 1.663e-41
