best_model.pth (torch, 473195 bytes, 13 tensors)

convs.0.nn.lins.0.weight f4 [128, 8]
00000000: ef82 04b9 9cce ffa0 1ae8 bda7 980e a911
00000010: be2b ef3b c826 be2d 73f6 86bd 9c45 9b38
00000020: 0351 073a 2fb8 1b3c cfd4 b4ba 61fc 64bc
00000030: b765 a63a 9cd7 2496 d9bf 503d 54a5 6d3c
00000040: a407 8fbc 538f 4ebc 29d7 77ad 0e9e 368f
00000050: 64f2 2a0c 3d17 a50f 5370 bd37 b392 a3ba
00000060: eea7 0c3c 7bd0 8c3d 2ae6 7535 3f0d 1f34
00000070: f87d 5933 169a 3517 c48e 4ebd f72b a63d
00000080: 989c dea3 5f8f 5d23 9dec 308e 9ee4 913c
00000090: c9ed f0a9 e777 9f3d 3b8a 6dbd 919a 773c
000000a0: 617d 7a3c e01c 3d90 c74d f9a0 111c 9abd
000000b0: 72bd 413d 9738 183d ad48 0090 7805 ac3b
000000c0: a99c 5035 d902 febc 2e0c 9d8f fe41 3fbd
000000d0: f2ab 2196 4573 52bd 5cce 8b3d e257 62bb
000000e0: 949a 17ba 7a9e 62bd 83bc 8f38 cc73 84bb
000000f0: c54a a213 e404 c838 bb2d 71bd c733 833c
00000100: 5fa4 9a3b 531c 8332 6ee4 7d1c de33 0fbc
00000110: dc86 9b3d 8c7c 373b 8528 a60d 24bd e43c
00000120: 8a17 f939 04a4 9dba 0d6f f5ba 29f3 213c
00000130: 2a99 43b8 035e 7bbc 21bb 8216 bb66 ccbc
00000140: f7c8 c8bb 4806 83bd 07bf 31ba 5ab5 23bd
00000150: 2f36 d336 dade 8dba 2f73 88ba a143 6a3d
00000160: f9f0 4e3d d4f9 1dbd f025 1ebd b405 4fbd
00000170: 5668 8db9 3b63 fab6 1bce 453d 64ac 81b6
00000180: f8f6 07bd 9878 1726 99b1 9ebc d8ac 0a3d
00000190: 10ab 3636 d1ee 8fbd bced efbb 355f cd3b
000001a0: f232 3e16 0992 6cbd 9cc2 553d 8791 2eb9
000001b0: 68e0 e81a 8af4 833d 9cee 0e38 8f76 923d
000001c0: 13c7 858f 7ce1 5d8f e3d2 8bbc ad74 38b8
000001d0: 65d8 ab3c fbf9 b90f adc6 133d 0d59 7c37
000001e0: 4a59 9e3c e659 ac3d 5953 7db7 44e0 ec39
000001f0: 26ac 062f 6c7e 8d3b cb38 5bbd f921 30ba
00000200: 2e0e 7894 71b2 8a39 eddc bcb7 4a71 623a
00000210: c07d 4d3a 1283 833d 9168 f039 79ef 18bc
00000220: fd96 a53c 5b7b daa8 cdaf b1bb f3d3 41b7
00000230: e287 4cbc 506c 613d 5918 ab90 de77 9fbd
00000240: 77a7 81bc fba7 8dbb 27e9 d739 111f 393b
00000250: 0dba e8b8 58bd 9e3d ac8a ecbc c7c5 4aba
00000260: 44d8 9e22 2745 9b3a af7d 9cba 6b63 43b8
00000270: 7b41 63bd 034e 68bd e41f 7cb1 9fa2 478e
00000280: 98f5 65bb b759 19ad 51be 6dbd 6d73 9ebb
00000290: 73bd ada5 188d b73c 3c49 7abc 8030 771d
000002a0: 6a5e 7e3d 82fa 093d ea1a dcb8 0cbf 91bd
000002b0: 20f2 8939 747c de36 6cf0 5cbc 7aa7 063a
000002c0: 59b2 883c f24b 7cbd c63b a735 495c 44bd
000002d0: e592 593d 6717 52b7 e001 7c34 f9cd 1abd
000002e0: 475d 8a3b 798e 88a0 2c70 b2b8 837c 2138
000002f0: 6dde 8334 2dc8 a63b 4fe1 1ebd d202 0ebd
00000300: 86b3 f6b7 28aa 323d 0cfd 8a3d 6f0e ae17
00000310: e8d6 96a0 54da 029c 3129 f73c da11 a8bc
00000320: 509d 49bb 117d c8bc 5487 a43d 979d ecbb
00000330: 38d3 513d 8a53 1c3d 1dbb c235 02e6 76bc
00000340: cb5b 8cba 7610 1ab7 7d44 fdbb e590 e1bc
00000350: c3a9 ffab bb42 d5ba 9eb2 0cbd d126 e091
00000360: c359 1939 2946 043d 11a3 513d 6493 873c
00000370: 11c6 453d e023 693d b98d 773c 3219 173d
00000380: 4612 073d 795f 4f3d 2ed9 b3bb d1a9 c133
00000390: 2896 4bbc 0111 823d d515 94bd a2f7 703d
000003a0: 376d c1ba fcc2 3cbd 6ca9 e13b a3e2 f63c
000003b0: 1a5c cdb2 c3fc 8ebd ae91 7abc 9d73 a23b
000003c0: 37ff 5e3b 6caa a3bd ac6f e53a 45fa bcb1
000003d0: 5277 163b 1390 c2b1 efb1 2fbc 0a93 a839
000003e0: dd12 6a1b 72ad 89b8 ec80 6c11 ba15 653d
000003f0: 36e0 113a cfac 00b9 6f48 833c 9cf3 da3c
-0.00012637278 -4.3335403e-19 -5.2709683e-15 2.6672493e-28 0.0072989156 2.1617722e-11 -0.06589975 7.403942e-05
0.0005161913 0.009504362 -0.0013796332 -0.013976187 0.0012695108 -1.3315849e-25 0.05096421 0.014504749
-0.017459698 -0.012607413 -1.40881e-11 -9.003733e-30 1.3169265e-31 1.6279207e-29 2.258286e-05 -0.0012479633
0.008584959 0.06875702 9.1604545e-07 1.4812848e-07 5.0638818e-08 5.867874e-25 -0.05042912 0.081138544
-2.4135608e-17 1.2010794e-17 -2.18076e-30 0.017809208 -1.069939e-13 0.077865414 -0.057993155 0.015112535
0.015288682 -3.7295922e-29 -4.223371e-19 -0.075248845 0.04729981 0.037163343 -2.5299536e-29 0.0052496754
7.771401e-07 -0.031007217 -1.5486087e-29 -0.046693794 -1.3059733e-25 -0.05137946 0.06826469 -0.0034537246
-0.0005783227 -0.055326916 6.8538844e-05 -0.0040421244 4.0968278e-27 9.537654e-05 -0.058881503 0.0160159
0.0047193016 1.5263288e-08 8.4005916e-22 -0.008740393 0.07594082 0.002799782 1.0240295e-30 0.02792222
0.0004751052 -0.001202703 -0.0018725112 0.009884634 -4.6634268e-05 -0.015342238 2.1120728e-25 -0.02495133
-0.0061274725 -0.063976824 -0.00067804795 -0.039967872 6.294598e-06 -0.0010823861 -0.0010410304 0.057193402
0.05052278 -0.038568333 -0.0386104 -0.05054255 -0.00026971352 -7.4621325e-06 0.04829226 -3.8645685e-06
-0.033194512 5.2552084e-16 -0.019371795 0.033856243 2.7219685e-06 -0.070279725 -0.0073220413 0.006267453
1.5364153e-25 -0.057756457 0.052187547 -0.00016648146 9.63155e-23 0.064431265 3.407766e-05 0.071515195
-1.3191493e-29 -1.0939568e-29 -0.017068332 -4.397768e-05 0.020977208 1.8338697e-29 0.036078144 1.5041104e-05
0.019329686 0.08415584 -1.5099381e-05 0.0004518052 1.2248388e-10 0.004318049 -0.05352096 -0.00067189295
-1.2523597e-26 0.0002645436 -2.2514223e-05 0.0008638097 0.00078388676 0.06421484 0.00045854275 -0.0093344385
0.020213598 -2.4256359e-14 -0.0054225684 -1.1553045e-05 -0.012483569 0.055034935 -6.748512e-29 -0.07786535
-0.015826924 -0.0043230033 0.00041181708 0.0028247277 -0.00011097277 0.07750958 -0.028874718 -0.00077351596
4.3054966e-18 0.001184617 -0.0011939312 -4.6584213e-05 -0.05548237 -0.056715023 -3.6688954e-09 -2.4606943e-30
-0.0035089012 -8.716964e-12 -0.058042828 -0.004835537 -3.0139092e-16 0.022406146 -0.0152762495 3.2715252e-21
0.06210176 0.03368617 -0.000104954306 -0.071165174 0.00026311073 6.630604e-06 -0.013485055 0.000513665
0.016686605 -0.061595865 1.2459866e-06 -0.047939572 0.053118605 -1.2522424e-05 2.3470011e-07 -0.037794087
0.0042225453 -2.3133577e-19 -8.508595e-05 3.850135e-05 2.4562488e-07 0.005089781 -0.03878909 -0.03467066
-2.9409082e-05 0.043619305 0.06786546 1.124813e-24 -2.5553201e-19 -4.3295574e-22 0.030171009 -0.020516325
-0.0030763932 -0.024473699 0.08033624 -0.0072209346 0.051226825 0.038165607 1.4508583e-06 -0.015069487
-0.0010708509 -9.182948e-06 -0.0077291117 -0.027534911 -1.8165958e-12 -0.0016270498 -0.03435003 -3.536489e-28
0.00014624656 0.032293472 0.051180903 0.016549774 0.048284594 0.05691898 0.015109473 0.036889262
0.03297641 0.05062816 -0.0054885363 9.018152e-08 -0.012425937 0.063508995 -0.07230727 0.05882991
-0.001475728 -0.04608439 0.0068866517 0.030137366 -2.3907024e-08 -0.06981804 -0.015293522 0.00495763
0.0034026632 -0.0799149 0.0017504594 -5.4999725e-09 0.0022959304 -5.6625225e-09 -0.010723575 0.0003215301
1.9362121e-22 -6.564976e-05 1.8656844e-28 0.055928923 0.0005564721 -0.00012271407 0.01602575 0.02672749

convs.0.nn.lins.0.bias f4 [128]
00000000: 6574 2d3c e55b ab3d 8e31 7a39 c795 0e3c
00000010: cff8 94b2 be91 203c 733e 67bd f60a a8ba
00000020: a762 2dbd 27b3 033d 46ab 49af 88ca 263d
00000030: 5de4 dabc 7768 debb d61f 92bc 8488 093d
00000040: cffc f23c 0cc7 a235 1fc0 a993 d60d 02ba
00000050: 1c36 1eb5 026e 3010 4a18 543d 22fc 123c
00000060: 9d56 31bd 0f89 0d1c f0c3 5e3d 0bc1 28bd
00000070: 873f 5f3d fc63 45b6 526c ad0f 5f14 d897
00000080: 1eb2 c4b2 4f6f c3ba 7f19 57bd a9e5 2828
00000090: 4b0b 39bd 4866 5db9 86e9 0b0f 9073 0d3b
000000a0: 922c cfbc 87a4 a7bd 8fea 02bd 3639 2423
000000b0: a55b 5dbd 0cd0 593c d671 87ba f79c ab3c
000000c0: 1d0c 9922 7a40 30b7 0c46 ccbc f86a 913d
000000d0: 1603 15bb 7c64 b917 fe89 a737 2a9f 403d
000000e0: d766 f7bc 2a8f 5fb1 3c1c 9998 8d91 c3bb
000000f0: 548c d43c d588 d7a3 bb29 69bc b688 c73c
00000100: 4235 bcbc 8cbb 80bd d82c a71f 18bc 6abb
00000110: ea65 37bb f24a 3931 6db0 48bd e085 52bc
00000120: 3925 ebbb eb02 3d3d 1f58 ea37 0fb2 16b7
00000130: 5d85 8c3c 7d15 963d 2204 db3c 1b47 1a3d
00000140: 6233 673d c843 e13c 9f80 078f 6972 08b8
00000150: 64e9 ccb8 1b0c 6fbd 2cb3 6bbc bd50 1f8f
00000160: 1dcd a4bc f903 08bb 979c a432 207d dabc
00000170: 0d19 913c e41e 35bd 3945 a3bd 09ee d037
00000180: 466f 6c3d 5da9 bf1f 7661 8cba 4ccb a13d
00000190: af47 543c a83b 823d 1b92 6bba 9029 a43d
000001a0: 8500 0bb3 b585 5e31 1794 993d 85ef 193d
000001b0: 1147 233d 1f7b 9dbc 7821 2c30 ac02 613d
000001c0: 2b11 0337 6299 068f 15e8 6326 172d 008f
000001d0: af1b 7a3d 6b42 b33d 6d2d ad3d 5c72 823c
000001e0: 7159 6e3d 420c 57ac c95a e73c d06b 98bd
000001f0: 43dc 1e0f 648a 1f39 ee8a 45bc 4fb8 ec3b
0.010586833 0.08367137 0.00023860318 0.008702702 -1.7342613e-08 0.009800373 -0.05645604 -0.001282065
-0.04233041 0.032153275 -1.8341692e-10 0.040720493 -0.02672022 -0.0067873555 -0.017837446 0.033577457
0.029661564 1.2127871e-06 -4.2851044e-27 -0.0004961168 -5.8938326e-07 3.4794627e-29 0.051780976 0.008971246
-0.04329549 4.683013e-22 0.05438608 -0.041199725 0.054503944 -2.9413486e-06 1.710084e-29 -1.3963815e-24
-2.2898401e-08 -0.0014910492 -0.05251455 9.375673e-15 -0.045176785 -0.00021114305 6.898204e-30 0.0021583773
-0.025289807 -0.08185678 -0.031961974 8.902573e-18 -0.054042477 0.013294231 -0.0010333608 0.02094887
4.148356e-18 -1.050543e-05 -0.024935745 0.07100481 -0.0022737435 1.1980711e-24 1.9972209e-05 0.04702679
-0.030200405 -3.253215e-09 -3.9578082e-24 -0.0059682787 0.02594582 -2.3368297e-17 -0.014231141 0.024357181
-0.022974614 -0.06285772 7.080144e-20 -0.003581768 -0.002798433 2.6963645e-09 -0.048996378 -0.012849301
-0.007176068 0.04614536 2.7936008e-05 -8.982154e-06 0.017153436 0.07328317 0.02673537 0.037665468
0.056445487 0.02749814 -6.6807854e-30 -3.253148e-05 -9.7709504e-05 -0.058361154 -0.01438598 -7.854855e-30
-0.020117337 -0.002075432 1.9163322e-08 -0.026670992 0.01771214 -0.044218913 -0.079721875 2.4906376e-05
0.057723306 8.1171835e-20 -0.0010710198 0.07900104 0.012956544 0.06359035 -0.000898631 0.0801574
-3.2363932e-08 3.2381255e-09 0.07498949 0.03758194 0.039862696 -0.019223748 6.26208e-10 0.05493419
7.812206e-06 -6.6362505e-30 7.9070976e-16 -6.319571e-30 0.061061557 0.087529026 0.0845593 0.015923671
0.058190767 -3.0560142e-12 0.028241532 -0.074424386 7.832422e-30 0.00015214976 -0.012057049 0.0072241197

convs.0.nn.lins.1.weight f4 [128, 128]
00000000: 7080 9b1a deba ca9a 65ff a990 e26e 6e0f
00000010: 7b4d b42e eadd 652f 4897 c6b4 7ffd be1b
00000020: 5e79 fa9d 6a9c 23b2 75e5 bd2b 6dd8 9595
00000030: c5ec de20 ad75 ee97 189e 4c8e 870f 960d
00000040: f139 4d8f 6f17 e11b 817f ab20 53a5 5fa6
00000050: d18b 1d9f 711d 9b14 840c a034 54bf 8610
00000060: f70c ca94 899d 12b4 8a61 069c 26e3 8d10
00000070: 372a 1a0e d418 fa33 6cf2 3e0e 9170 9531
00000080: 7776 4f91 9b9e 5023 4ee1 8e34 4be4 b32c
00000090: a412 cca7 43c8 44a1 6a5c 6a30 b57a eab2
000000a0: 47b5 6732 4c46 3c0d d551 1e30 347d 3aa4
000000b0: 8539 ef1f 5423 c595 284a b920 b73c 42b4
000000c0: e388 ab0f f590 87b4 6832 e592 e588 e310
000000d0: 093b dfb4 cc98 a999 eabf 800f 7bf4 10b1
000000e0: 7b92 050e 430b 979f 34d1 821d a7b3 eaa2
000000f0: 6e4a 110e 1fa3 9811 5e3f 1f90 c317 4a35
00000100: 694a 0234 00c3 b510 04d5 e8ad 3387 c4a0
00000110: dd99 0818 9fcd af10 a53c 3034 3f43 a834
00000120: 19eb 61af 9fed 2b11 6279 d034 8ff9 4bb5
00000130: da81 001d 54f3 1526 2eb7 2b17 4208 0e2f
00000140: dd01 6c0f d13d fb0d 1f51 ad97 9346 8a24
00000150: 8d71 98ad a8d0 2a9e 8690 a60d b9aa 139f
00000160: 0940 0535 84ea e510 bc0c 0810 26bd ce92
00000170: 2142 8f0f fe33 b492 8b11 3426 8e70 261a
00000180: 158a b20f 533c 8a12 a75d 8c0d 77d8 7d31
00000190: 51c1 ddae a38c dd31 e204 e911 fe1a a518
000001a0: d75b 890f ace6 fa92 19c2 63b4 b4b2 9190
000001b0: e4d8 d9b2 4acc 928f 28dc 8117 b1e9 a933
000001c0: 464e 0620 a34b a896 d1c4 7093 473e 9f97
000001d0: 2371 f416 1403 e523 bc97 52a6 38d5 8f1a
000001e0: 552a bb92 5b3a 7e33 5c49 2a1b 8fba 132f
000001f0: aa8e f217 0a2d b6a9 b8c3 b59c 85a5 8034
00000200: 85bf bba0 b9fb 4911 3616 d58f c39c 0219
00000210: 7252 7f11 401d 2330 974b bf1b e74e 80a7
00000220: acee 1fa2 1633 7c91 e5c3 0e93 1289 2335
00000230: 8fb4 22b1 6ec6 3d16 888b 86b4 d287 c7b3
00000240: 1f75 7492 373b a8b3 661d fb30 5cfd de25
00000250: facf 80b3 9325 5035 af3a 4d90 b89a dc34
00000260: 8d0b 58ae 9911 828f 6a33 c096 d883 a80d
00000270: 00f1 c38e 781a 04b5 f501 f60d 47d6 801e
00000280: 6b17 96ab df62 4aaa bdaf b32f bc09 13b4
00000290: c045 1d23 cb81 23a6 f92d b4aa 710b 6690
000002a0: 67a8 402f 1f99 05b5 ebb2 96b4 bda0 9f0e
000002b0: 77db f59e c3df 161f 80f8 e113 2a5a 120e
000002c0: 79e2 da2d 55fb e890 bd19 c5af 23dc b6b4
000002d0: 0c88 87b1 6384 0233 bb4a a79a b325 fa29
000002e0: 04a8 e9a5 879a 6a10 6f17 2113 a8d7 e313
000002f0: 5473 3c19 db89 7411 f996 0394 8cbf d42c
00000300: 476c ae18 800a dc0e 2806 a533 91aa 6e1d
00000310: 973a 601a 866c 8b92 a5aa 198e e8c5 9b13
00000320: 9452 070f 439f 8117 c4af 6317 e150 6ab5
00000330: 800f a12d 0a7e b790 6a69 0311 ee57 5ab3
00000340: 24f1 2331 b8c2 638e 140a 3098 d865 5d0f
00000350: a597 1b0f ee79 f70f 12cb a7b2 bc37 a42b
00000360: 5185 5c20 4d20 0591 8899 a11c e764 7c9d
00000370: f166 0725 5a4a bd1a 4549 d710 ae45 d433
00000380: 98ac d60f 9d32 4f35 10d1 ef29 df29 7f9d
00000390: 997c 8e10 608b 5226 9a87 a931 f464 1c35
000003a0: 90a7 ab18 6592 c10e 75a8 df2f 3fe1 57a6
000003b0: 186f ad33 8d86 c8ab 489e 9a15 a58d 12b5
000003c0: f9fb 4198 6495 c0b2 e972 869c ae27 2f1d
000003d0: 2ce3 03b1 0342 ea1b 9a85 3bb4 3878 6ea5
000003e0: 0de6 5f10 0d1c b21e 0147 7c94 fd9f 3596
000003f0: 4b91 ae0e 67ac 8917 fdf9 bdb4 f1ba 5430
6.4314e-23 -8.384714e-23 -6.7052244e-29 1.1755661e-29 8.1992156e-11 2.0906268e-10 -3.6990446e-07 3.1596681e-22
-6.629994e-21 -9.523413e-09 1.3492945e-12 -6.052208e-26 3.7764944e-19 -1.5410095e-24 -2.522106e-30 9.248202e-31
-1.01184395e-29 3.723827e-22 2.9052902e-19 -7.7592723e-16 -3.3361697e-20 1.5662613e-26 2.981143e-07 5.314847e-29
-2.0401901e-26 -1.365462e-07 -4.4462947e-22 5.596467e-29 1.9002291e-30 1.16460484e-07 2.353603e-30 4.349268e-09
-1.6365926e-28 1.1309289e-17 2.6613492e-07 5.1128316e-12 -5.6641584e-15 -6.6672427e-19 8.526003e-10 -2.7296986e-08
1.3487187e-08 5.801659e-31 5.7596355e-10 -4.0438372e-17 1.01315595e-19 -7.9623404e-26 3.1389292e-19 -1.8089746e-07
1.6914629e-29 -2.525118e-07 -1.4464358e-27 8.974663e-29 -4.157994e-07 -1.7535905e-23 1.2695697e-29 -2.109373e-09
1.6464043e-30 -6.396962e-20 3.4627024e-21 -6.361604e-18 1.7908466e-30 2.4081903e-28 -3.1406037e-29 7.528544e-07
1.2134264e-07 7.169236e-29 -2.6469944e-11 -3.329316e-19 1.765527e-24 6.934214e-29 1.641334e-07 3.1341366e-07
-2.0547154e-10 1.3562744e-28 3.8831337e-07 -7.598655e-07 1.700779e-21 5.202453e-16 5.5484285e-25 1.2917759e-10
1.1636057e-29 1.5483951e-30 -1.1200341e-24 5.996752e-17 -1.7330826e-11 -9.042874e-21 1.0265333e-30 -3.126968e-20
4.9639544e-07 9.06859e-29 2.683108e-29 -1.3047056e-27 1.412636e-29 -1.1372414e-27 6.247382e-16 3.4418916e-23
1.7605342e-29 8.723895e-28 8.650712e-31 3.6939392e-09 -1.0084256e-10 6.447935e-09 3.6763927e-28 4.2678755e-24
1.3544618e-29 -1.5834083e-27 -2.1211635e-07 -5.746775e-29 -2.5360755e-08 -1.4475401e-29 8.392005e-25 7.912184e-08
1.137614e-19 -2.7189597e-25 -3.0389297e-27 -1.0290855e-24 3.9491725e-25 2.4829533e-17 -7.3064024e-16 5.948789e-23
-1.1811795e-27 5.9192057e-08 1.4085774e-22 1.3435851e-10 1.5674897e-24 -8.0902367e-14 -1.2028167e-21 2.396229e-07
-3.180577e-19 1.5933672e-28 -2.1011977e-29 6.7525e-24 2.0141359e-28 5.934062e-10 3.1647148e-22 -3.5612683e-15
-2.167487e-18 -1.9895037e-28 -1.8019503e-27 6.0921695e-07 -2.3676738e-09 1.5329912e-25 -2.5060967e-07 -9.291365e-08
-7.7137187e-28 -7.833881e-08 1.8271009e-09 3.8682544e-16 -5.998295e-08 7.7540716e-07 -4.047433e-29 4.1090766e-07
-4.9122973e-11 -1.2825768e-29 -3.105172e-25 1.038554e-30 -4.8303286e-30 -4.921235e-07 1.5161392e-30 1.364115e-20
-1.0664641e-12 -1.7975507e-13 3.268478e-10 -1.3693983e-07 8.525757e-18 -5.672789e-16 -3.2006323e-13 -4.5368316e-29
1.7522127e-10 -4.976918e-07 -2.8069857e-07 3.935131e-30 -2.6031153e-20 3.1948827e-20 5.7043025e-27 1.8039302e-30
2.4884305e-11 -9.1895103e-29 -3.585238e-10 -3.4060312e-07 -3.944484e-09 3.038839e-08 -6.9190315e-23 1.110877e-13
-4.053291e-16 4.6267406e-29 2.033261e-27 5.751551e-27 9.7426625e-24 1.9290686e-28 -6.643584e-27 6.0466684e-12
4.5087278e-24 5.42443e-30 7.684531e-08 3.1587218e-21 4.6369443e-23 -8.798886e-28 -1.8940868e-30 3.932265e-27
6.671918e-30 8.376633e-25 7.3569503e-25 -8.728949e-07 1.8310464e-11 -7.2374967e-29 1.0366561e-28 -5.0837052e-08
2.3856694e-09 -2.8073664e-30 -2.2752555e-24 1.0915756e-29 7.671296e-30 2.4403046e-29 -1.9533704e-08 1.166837e-12
1.8678836e-19 -1.0501803e-28 1.0693773e-21 -3.3404088e-21 1.1744261e-16 7.828869e-23 8.4915437e-29 9.884694e-08
2.116851e-29 7.718716e-07 1.0649999e-13 -3.3770616e-21 5.62011e-29 7.3047274e-16 4.9339635e-09 5.8261435e-07
4.437166e-24 4.7719146e-30 4.068316e-10 -7.4898375e-16 8.076148e-08 -1.42482e-12 6.244983e-26 -5.459536e-07
-2.507188e-24 -2.2419677e-08 -8.89708e-22 2.3181571e-21 -1.9192141e-09 3.8754712e-22 -1.7464336e-07 -2.0683941e-16
4.415622e-29 1.8858085e-20 -1.2736752e-26 -1.4671547e-25 4.3034224e-30 8.896938e-25 -3.5385884e-07 7.739081e-10

convs.0.nn.lins.1.bias f4 [128]
00000000: 87d3 2e91 bc3e a534 f262 c6ad 98b7 9231
00000010: a95f 472a 6e96 64b5 179a d6ae 41eb 99af
00000020: 5a90 1eb2 45de 3411 0887 ac19 136a 9b8f
00000030: c06e e62c f20f f334 b417 9624 4252 b910
00000040: 14e9 05a5 883a 529d 93e5 9f8f e3d2 26a5
00000050: 3bb3 d08f 13f1 f7b3 9f97 0029 7e10 8b21
00000060: a5e0 561d 3b47 b0b3 8349 a634 6314 4cb5
00000070: df86 882b 4651 671d 87cd 190f 6ba0 8c92
00000080: b3a5 a62e e541 c817 cd85 9fa5 d369 3110
00000090: bab5 4f34 98aa 681a 8563 aa10 4304 a314
000000a0: 7044 2531 559b 0811 de04 8497 f4c0 b0b1
000000b0: 778a 62ad fbf7 199f 779f 8c0e 8232 ddb4
000000c0: 72d8 410f 6d7c 199f afe7 2814 7261 c1a2
000000d0: 9195 58aa 78c8 2891 998f 29b3 7be7 0f91
000000e0: be02 0b32 3bc3 4991 f785 6eb5 3531 1790
000000f0: 346e c1b0 b129 ae9e 7de4 021d 7299 7092
00000100: 307b 3b2b 571d ad98 7e1c d90f d7f5 9e9d
00000110: 19c1 1ea9 ab9e b310 c221 4111 1ba9 970f
00000120: 8c4b 6ea6 2132 a7ae 65e4 1311 329c 992f
00000130: 7f7b e596 7808 2929 72d6 c78f 8b58 a490
00000140: ce5f 2333 546d 2693 9c3b 50a3 d9f5 4f97
00000150: 94e6 a00f a597 002f 77d3 4bad ce66 62a6
00000160: 3e24 202e ee25 2312 48e7 2532 4f67 d490
00000170: 6558 c12b 0120 9a18 2424 f28f 4a72 6414
00000180: 73de ec90 dbf1 1c1f 5652 6bb3 930a 5234
00000190: 1639 ee17 96b6 270f ce5f 7b13 c62d 07b0
000001a0: 711e 00ad 9f8b 5826 1181 c517 2621 75b4
000001b0: 93d4 1533 7a29 45b2 11d4 b4b2 c13e dd18
000001c0: 73cd 7911 9827 4211 d28a c79a a557 8e2e
000001d0: a721 40af 941f 0c32 dbe5 e211 b91b ff96
000001e0: b280 a690 5a7d 849a 303b 4e2c e088 38b5
000001f0: 3eac 949a 19e0 2897 4292 df33 ae0d 8b1a
-1.3791362e-28 3.077929e-07 -2.2553934e-11 4.2700314e-09 1.770794e-13 -8.515552e-07 -9.758965e-11 -2.7997696e-10
-9.229632e-09 1.4267988e-28 1.7838922e-23 -1.5325038e-29 6.549289e-12 4.527388e-07 6.5092285e-17 7.309637e-29
-1.1614881e-16 -2.7823529e-21 -1.576704e-29 -1.4469656e-16 -2.057942e-29 -1.1545685e-07 2.855322e-14 9.423372e-19
2.8438803e-21 -8.2085954e-08 3.0973396e-07 -7.602559e-07 9.700815e-13 3.0614613e-21 7.5830655e-30 -8.874788e-28
7.57824e-11 1.2941331e-24 -2.767277e-16 3.498862e-29 1.9344489e-07 4.811428e-23 6.720651e-29 1.6460475e-26
2.4049562e-09 1.0776374e-28 -8.531529e-25 -5.1442104e-09 -1.2877358e-11 -3.2604135e-20 3.4666224e-30 -4.1201207e-07
9.5573205e-30 -3.2501933e-20 8.527524e-27 -5.241593e-18 -1.9236545e-13 -1.3314637e-28 -3.947898e-08 -1.1352041e-28
8.091488e-09 -1.5916264e-28 -8.8856854e-07 -2.9817407e-29 -1.407392e-09 -1.844021e-20 1.7323482e-21 -7.5919783e-28
6.6606703e-13 -4.4749078e-24 2.1408827e-29 -4.2076444e-21 -3.5250533e-14 7.084752e-29 1.5235418e-28 1.4954887e-29
-8.267522e-16 -7.6031854e-11 1.1666635e-28 2.794152e-10 -3.7074882e-25 3.7532884e-14 -1.9705516e-29 -6.4823016e-29
3.803853e-08 -2.1006049e-27 -1.1288325e-17 -6.719561e-25 1.5866034e-29 1.1695407e-10 -1.1586169e-11 -7.854883e-16
3.6411978e-11 5.1480483e-28 9.656851e-09 -8.377843e-29 1.3738009e-12 3.9840383e-24 -2.3876963e-29 1.1533598e-26
-9.3428324e-29 3.3234343e-20 -5.4790085e-08 1.9561621e-07 1.53948e-24 8.2689005e-30 3.172789e-27 -4.917776e-10
-7.282717e-12 7.5129276e-16 1.2763408e-24 -2.2829462e-07 3.48851e-08 -1.147634e-08 -2.1051195e-08 5.7190526e-24
1.9705945e-28 1.5316102e-28 -8.252875e-23 6.472981e-11 -1.7474254e-10 8.156253e-09 3.5798172e-28 -4.1214967e-25
-6.567374e-29 -5.4796437e-23 2.9307216e-12 -6.874452e-07 -6.148964e-23 -5.456658e-25 1.0410851e-07 5.7511153e-23

convs.1.nn.lins.0.weight f4 [128, 256]
00000000: 06f8 6220 23bd 6d93 05f8 be13 b620 328f
00000010: 42fe 640d 8469 7611 4ace 540e b0b1 b30f
00000020: 3898 c78f 9301 472c 7cad 9d8e 2d6a 65aa
00000030: 3241 b10e af9f c68f 83e4 0a95 7177 bd8f
00000040: e497 60aa 6112 d610 9983 e825 945d 300f
00000050: ac84 5d16 4c6d b08e bb7c 0094 f51e f393
00000060: 4681 3225 6751 6ea6 aee4 5e22 b393 a81a
00000070: a771 3f96 6ccc f18e 4228 1d92 2d75 ae1e
00000080: 36a1 001e bbb1 060f 6aea 3392 3f7f 262c
00000090: 8e8f 081a 6b9e 8d10 2cce 940f 9142 2818
000000a0: 7580 3f8f 40a3 cd90 e192 d58d c72e 2ba5
000000b0: 84a2 a011 eb0b 14ac e9cf f30e fa0c 2d12
000000c0: 42c8 c519 8081 8e22 25ba 8913 fcdf 8d98
000000d0: 7bcf 91a5 1037 fd29 c2d2 1cad 6695 97a5
000000e0: da85 bc29 cccf 999e 9980 a50e 66b2 17ab
000000f0: cf09 308c fcd1 e70e 235e e416 c8f1 8b1c
00000100: 8f10 0216 6561 45a6 149f 072d a337 058d
00000110: e334 429a a497 c397 6871 8115 8fa5 d428
00000120: 562c 03a1 758a a799 4f5d 9b19 6c16 f220
00000130: 2166 1190 878c 9d1e 1c13 2e96 14c7 2013
00000140: 42bf 6f98 bc39 2419 824e 8019 05d5 1690
00000150: 7f29 8910 659f bb2a e5d2 d71b a10b 4ca3
00000160: 8f66 9e17 2ad1 6718 6be0 7f94 f45a 1a12
00000170: b053 0121 01ac 38a5 6c49 968f 0c9c 19ac
00000180: d02d 5d26 d3ec 9124 a889 0b8c 1d73 1893
00000190: 8f5e 1210 1337 c30e 9443 088e 02f6 e31e
000001a0: e676 010f 1353 7790 22c7 3f96 c8dd 4591
000001b0: 7d9a ba90 a2be 5b1d f65b f60f a66e ac19
000001c0: a310 120e c829 d69d fdf3 798e b97e 101c
000001d0: 9260 0d21 70ff d58e b797 c590 2593 1116
000001e0: 7ec6 fb9e 53a8 5b1a 8a4d fe1e c291 2f8f
000001f0: 1f46 519d 6a12 6d11 daed 3723 d4c5 33ab
00000200: 78a4 4b2d 4270 b822 1b17 eb26 1de5 cf93
00000210: d712 d59e 772f 110e 9e85 7c99 9cc3 ca8d
00000220: aad4 f79b d6c1 7f14 b486 0094 1941 a120
00000230: 2b69 0f0f d6c0 c297 d840 0d10 fb8b 480f
00000240: 9cde 0110 76d3 10a9 8948 8f95 96b8 540f
00000250: 0477 f80f fcbf f929 48fb 2aaa e5bd 311e
00000260: 68f7 631d 3673 4e25 1c9d 0b0f 0659 ac19
00000270: 8c34 0b8e e867 080f 682d 5a19 c676 3e10
00000280: caa9 3894 22a5 319d 2490 0f94 1eff 6126
00000290: eec2 0690 3376 4d17 fbdc f196 ec33 b58d
000002a0: 9a40 0aa1 81a8 b7a2 7fbb 83a0 2283 070d
000002b0: b33c 5f92 6095 da99 8d33 e48f cab1 8f95
000002c0: bcc3 a10e 4ace dc0e 7b3a 049d 9895 1e16
000002d0: f467 8910 7693 eb2c a2d4 b397 56ab 430e
000002e0: 1cb6 b38b c0f7 f49e ab90 6a1e 8f82 a62a
000002f0: c2bb 9f29 ccdb 131d 4eb5 0811 cbc4 2295
00000300: 9783 cb14 0148 ab99 5b52 1a1f 7d02 26a6
00000310: 106a c00f 0e59 0a21 16e1 6095 e69c 3994
00000320: 5747 4a12 bab1 1c0f ae43 a690 5ecd 7c0e
00000330: b5af 6d27 a7c0 be94 e3de 4c90 95f9 8a0e
00000340: ab97 6f92 0b77 5994 862f 5b26 8dd7 938e
00000350: 85ac 2695 0ca9 c91d 191b b98c 2b0b 788f
00000360: 9b8c 6e92 34c2 431d 24d8 5d95 6735 dfa2
00000370: e89c 808d b573 302c bfde 262c 4fce 0f92
00000380: 7d44 a919 59c1 e90b 2f54 1bac b509 f394
00000390: b59a 7c8f f802 b80e 7ae5 8211 759b d10f
000003a0: af67 eb93 899d 548e b016 b78c b6ca 3e16
000003b0: ccfc 08a1 83ab da10 a1f1 2d23 0d0b e811
000003c0: 4318 0195 8b70 d28d c023 fd92 a1e2 2a0e
000003d0: ad1b 9411 8ae8 eb12 abe6 e81b 819b 768e
000003e0: b2a0 2fa9 9141 9719 3f0d 040f 8587 578e
000003f0: 434c 19a2 2c64 288e 1c3a 802c aa75 008e
1.9225009e-19 -3.0006857e-27 4.820731e-27 -8.7823775e-30 7.0563976e-31 1.9438493e-28 2.6230342e-30 1.7719205e-29
-1.9681548e-29 2.8280475e-12 -3.8870548e-30 -2.0376123e-13 4.369665e-30 -1.9585815e-29 -2.8049142e-26 -1.8682846e-29
-1.9947894e-13 8.4436434e-29 4.033476e-16 8.6954924e-30 1.7894102e-25 -4.34926e-30 -6.486947e-27 -6.137235e-27
1.5482838e-16 -8.268316e-16 3.0207672e-18 6.972179e-23 -1.546472e-25 -5.9607938e-30 -4.9590086e-28 1.847143e-20
6.809601e-21 6.64094e-30 -5.677138e-28 2.3660655e-12 2.8240103e-23 5.5858775e-29 1.4673341e-29 2.1747099e-24
-9.441767e-30 -8.110977e-29 -1.3162498e-30 -1.4847735e-16 2.5343707e-28 -2.103868e-12 6.0104335e-30 5.460517e-28
2.0450206e-23 3.862629e-18 3.4767215e-27 -3.6673812e-24 -2.5294085e-16 1.1245009e-13 -8.914371e-12 -2.629556e-16
8.372097e-14 -1.6285448e-20 4.0799475e-30 -5.3893554e-13 -1.3561498e-31 5.7148104e-30 3.6894795e-25 9.260747e-22
1.0506541e-25 -6.84801e-16 7.709184e-12 -4.105076e-31 -4.016098e-23 -1.2639859e-24 5.228161e-26 2.3608528e-14
-4.4443205e-19 -1.7323318e-23 1.6064311e-23 4.1011232e-19 -2.8674885e-29 1.6681142e-20 -1.4061638e-25 2.0292992e-27
-3.0986587e-24 8.490261e-24 1.3266599e-23 -2.9746388e-29 5.4100907e-29 3.3328475e-13 3.5705054e-22 -1.1061325e-17
1.02364e-24 2.9961651e-24 -1.29184686e-26 4.870594e-28 4.381766e-19 -1.6017733e-16 -1.4819423e-29 -2.1829231e-12
7.6736865e-16 6.328492e-17 -1.0749595e-31 -1.9241852e-27 2.8866268e-29 4.8124246e-30 -1.6795832e-30 2.4136306e-20
6.38309e-30 -4.877616e-29 -1.5491692e-25 -1.5608901e-28 -7.360209e-29 2.9082964e-21 2.4292895e-29 1.7829074e-23
1.80039e-30 -5.668853e-21 -3.0809096e-30 4.780939e-22 4.790047e-19 -5.275453e-30 -7.793655e-29 1.1759437e-25
-2.6657753e-20 4.542411e-23 2.6925365e-20 -8.656238e-30 -2.7697171e-21 1.8701678e-28 9.970817e-18 -6.3868117e-13
1.1575733e-11 4.9992158e-18 1.6312663e-15 -5.248007e-27 -2.2560044e-20 1.7895483e-30 -1.30550784e-23 -1.2496302e-30
-4.1000153e-22 1.2912437e-26 -6.488914e-27 2.731754e-19 7.070699e-30 -1.2585635e-24 2.78573e-29 9.8877206e-30
2.5612256e-29 -3.2157836e-14 -5.787168e-26 1.0487957e-29 2.4500531e-29 1.1091125e-13 -1.5186214e-13 9.409571e-21
3.0171106e-21 1.7906687e-16 6.883487e-30 1.782034e-23 -1.7158373e-30 6.725329e-30 1.12795056e-23 3.7562393e-29
-9.323111e-27 -2.3511127e-21 -7.248082e-27 7.8408305e-16 -2.657701e-29 6.638826e-25 -3.9075108e-25 -1.1167486e-30
-4.684172e-19 -4.978066e-18 -2.2316338e-19 4.175793e-31 -7.044121e-28 -2.2601004e-23 -2.2502392e-29 -5.803774e-26
3.987805e-30 5.4432836e-30 -1.7500288e-21 1.2810342e-25 5.419714e-29 6.695473e-12 -1.162128e-24 2.4118101e-30
-6.92223e-32 -2.5936972e-20 1.24177735e-20 2.9578117e-13 7.093589e-14 1.956892e-21 1.0784377e-28 -3.2870882e-26
2.0549665e-26 -1.7710068e-23 3.267889e-20 -5.759619e-16 1.8973516e-29 4.687408e-19 -4.5414e-26 -9.371056e-27
6.3827894e-28 7.725623e-30 -6.557973e-29 3.1160279e-30 3.2985608e-15 -1.9261085e-26 -4.0403612e-29 3.4259965e-30
-7.560205e-28 -1.0979177e-26 7.6045295e-16 -3.6445866e-30 -3.3659527e-26 5.3379047e-21 -2.8520072e-31 -1.2229495e-29
-7.527287e-28 2.5908436e-21 -4.48011e-26 -6.0500813e-18 -7.926383e-31 2.5075335e-12 2.3713668e-12 -4.537714e-28
1.7501853e-23 9.003925e-32 -2.2073556e-12 -2.4540558e-26 -1.2454355e-29 4.536236e-30 2.065181e-28 2.0668871e-29
-5.942458e-27 -2.6206868e-30 -2.820927e-31 1.5412042e-25 -4.6413166e-19 8.6250094e-29 9.429516e-18 3.6609957e-28
-2.6070482e-26 -1.2969343e-30 -1.5975358e-27 2.1063236e-30 2.336734e-28 1.488791e-27 3.8530246e-22 -3.0396713e-30
-3.8997187e-14 1.5639516e-23 6.5106536e-30 -2.6566046e-30 -2.077574e-18 -2.075583e-30 3.6444302e-12 -1.5833871e-30

convs.1.nn.lins.0.bias f4 [128]
00000000: 98dd 8823 0912 9da5 7085 e916 3594 8b2c
00000010: fd23 1b9d 6610 52a8 e8ce d113 1c1c 4e20
00000020: 805a a58f 9187 8820 46f2 2d13 78da 8d2b
00000030: 0c26 dd12 6147 d012 0c52 53a6 6be5 5a19
00000040: ed20 2798 bc79 aea0 20f7 3512 e4e8 b991
00000050: 0954 e88f 8176 f691 70c0 3296 b02a 1a9f
00000060: 28df 5110 0a7d fa15 4b1d a319 2f1a f31e
00000070: 8697 6892 d790 1116 47e4 8a12 ff2b 1b11
00000080: 12f0 310e e7cc ee0f 43a8 531b 57f3 e425
00000090: b1ce 8391 9d26 8f99 53f6 82ab 47c4 e011
000000a0: 24b5 e116 b681 fd12 31d8 2217 24de 0d92
000000b0: 3b54 0c9c f3fd a491 c83f e291 5b28 1816
000000c0: 0b95 2092 e63b 87aa 0d9d 0924 d257 7a9d
000000d0: b78c 8812 215a 6912 098e 2810 18d5 8191
000000e0: 6018 b593 6e59 0c92 4ffe 041f 5fd2 f59e
000000f0: f630 0b92 c279 408e 8c83 8f9e 79e6 6d2b
00000100: 9ecc 4bac 6f28 0213 c04b 8696 299e da93
00000110: 8fe3 e69b c1af 5092 b3fc b2a0 8c66 a10f
00000120: 47ae 1b9f 39b1 239d 4d65 0a91 1bf0 8112
00000130: 3b04 669a 667c b399 fd66 4a13 c215 1ba1
00000140: a0be e68e 4d18 42ad d52b 8f94 5b38 5aad
00000150: ee57 bb11 c9bc 3a96 562e 3ba5 0532 8b91
00000160: b0dc 821e 24f3 c411 2c7d c597 9685 f791
00000170: 3b19 1912 b843 8690 d00c 5015 737e 9313
00000180: a340 fb92 0f0b d893 00c3 ce91 fa62 5811
00000190: 92ee f11d e44d ee92 9461 6413 94a7 c895
000001a0: 26cb 9c95 85c2 900e fac4 9812 5ccb 069c
000001b0: 7a96 2491 7ef2 d212 5dd7 9a11 4203 6b95
000001c0: fdae c59a 5466 a425 f9ae 7f1d 9902 6794
000001d0: a165 ee16 f81d 51a3 4250 9990 7a6e a8ac
000001e0: ea56 062c 3495 4626 7303 c429 0064 cc9e
000001f0: 99e6 181f 14f1 e722 6a46 0216 2588 9491
1.4838998e-17 -2.724738e-16 3.772739e-25 3.967072e-12 -2.0532685e-21 -1.1660898e-14 5.2963043e-27 1.7458179e-19
-1.6305116e-29 2.3129006e-19 2.195512e-27 1.007929e-12 1.395644e-27 1.3144242e-27 -7.3316525e-16 1.13166664e-23
-2.1600867e-24 -2.9557304e-19 5.7418135e-28 -2.9331383e-28 -2.2909335e-29 -3.888499e-28 -1.4439448e-25 -3.264608e-20
4.1389896e-29 1.0117147e-25 1.6865636e-23 2.5739455e-20 -7.339306e-28 1.175871e-25 8.765299e-28 1.2240901e-28
2.1932524e-30 2.3547537e-29 1.7507879e-22 3.971659e-16 -2.079554e-28 -1.480145e-23 -9.305424e-13 3.5461934e-28
3.6465026e-25 1.5998521e-27 5.2617895e-25 -4.4765565e-28 -4.643098e-22 -2.6031146e-28 -3.569582e-28 1.2291196e-25
-5.0670808e-28 -2.402238e-13 2.9840167e-17 -3.3132627e-21 8.617496e-28 7.363293e-28 3.3241578e-29 -2.048394e-28
-4.571486e-27 -4.428644e-28 2.8162446e-20 -2.6027391e-20 -4.3921015e-28 -2.3724451e-30 -1.519512e-20 8.451916e-13
-2.896162e-12 1.6428242e-27 -2.1696673e-25 -5.5186895e-27 -3.8197364e-22 -6.584986e-28 -3.0321595e-19 1.5915325e-29
-3.2966686e-20 -2.1664492e-21 -1.0917496e-28 8.200235e-28 -4.7566303e-23 -1.855841e-23 2.5546762e-27 -5.254484e-19
-5.6882943e-30 -1.1033019e-11 -1.4456599e-26 -1.2404379e-11 2.9557589e-28 -1.508453e-25 -1.6235364e-16 -2.196116e-28
1.385556e-20 3.1073194e-28 -1.2762424e-24 -3.9052057e-28 4.8309386e-28 -5.295802e-29 4.2015373e-26 3.7232706e-27
-1.5856261e-27 -5.453697e-27 -3.2621247e-28 1.7069895e-28 6.4038845e-21 -1.5039113e-27 2.8825756e-27 -8.104375e-26
-6.332841e-26 3.5686056e-30 9.641107e-28 -4.4599717e-22 -1.2983688e-28 1.3312642e-27 2.4429644e-28 -4.7460442e-26
-8.176e-23 2.8518805e-16 3.3839428e-21 -1.1663032e-26 3.851511e-25 -1.1336259e-17 -6.0471516e-29 -4.7871125e-12
1.9090792e-12 6.889726e-16 8.704747e-14 -2.1640699e-20 3.2377998e-20 6.2867927e-18 1.0523535e-25 -2.3434188e-28

convs.1.nn.lins.1.weight f4 [128, 128]
00000000: 74aa 228f d31e 5eb4 43dc 43a6 86de 0fb5
00000010: 37b7 860e e414 a733 1dfd 490f f3d2 12b5
00000020: 7b73 c4a0 9150 c38d 0b64 f513 1eb4 c41a
00000030: 8839 bb0e e42d b7af a098 180e 11d1 f434
00000040: 5c1e 1f0f b6a7 df90 ea5b 050e 2295 c18f
00000050: a717 c311 93c0 e732 7c03 d82f 7539 acb0
00000060: 38a2 1d0c 8753 750e cfdb 9cb1 df7f eab4
00000070: 163e d620 1a4d bf12 134e b5a9 d45c ff2c
00000080: f576 45b3 921f e295 0ee9 1b8d eb9f dd8d
00000090: cc06 c217 6b32 c817 94e7 b290 4d9a c00d
000000a0: 54d9 d18e 745f 0423 3dd2 632e 6554 6ba6
000000b0: 1ba7 a730 9edd 758f a580 450f 82d5 0993
000000c0: be6a d32a c95c 6012 d08f 50b3 4d2c be32
000000d0: 5410 9a15 f728 5b34 1ceb 8f0f 0728 b1b1
000000e0: 0fb8 1e33 0528 d8a2 c7cf a12d 9abb fb1f
000000f0: 9dd6 4811 c139 8397 3bff aa2b 65bd 8e13
00000100: 15a1 9f9a 1a06 9d30 7e1c 4234 8c57 012e
00000110: 1630 7631 f9e4 292d e431 65a9 ac8a 382a
00000120: 7c59 c58e 86d4 b78f 767f 8298 5464 fc28
00000130: 11d6 400e 4eef fc29 2ce0 0996 e1c2 e2af
00000140: f191 588e 338e da0e df74 5c0e f99a c521
00000150: 1917 3897 3022 9b8f 94af 9c1a 5d6d 8927
00000160: 9bb5 16b1 d37a d8ab 44ae 890e 6ddc c8a9
00000170: 23e4 5bb5 a908 b6a2 bc50 d08e 1631 ea33
00000180: d65a 99af 8871 029f 0627 3bb4 3532 19ac
00000190: a9eb a02d 5946 cd1b 6f34 bd0f 6831 fdb1
000001a0: 8220 e70d 26ac 68b1 24cb 4b90 323f 8f0e
000001b0: 10bf 9715 89a3 be0e 7bf6 1b2b 13b7 172d
000001c0: c788 a32e a43a b4a2 292c 0daf 523b 848d
000001d0: ea24 329f 4cfa 3e9b 7e78 8f2b cd59 4b92
000001e0: 98c9 43af 888d 2d30 8a45 052b e001 3391
000001f0: 3b88 a6a5 cb6b 8c8f 66c3 c7b4 f811 e599
00000200: 3271 490e 1427 9ab4 1dc5 5c0f a38e d933
00000210: 84d4 101c 9971 5ab1 2c98 a40f faf7 5f2d
00000220: 742d 2f9c 7a7f 43aa afaa 55b0 ba48 5694
00000230: 2f8f 4023 e114 ed8e 8631 7a2a 9dc1 66af
00000240: f5c4 5a1e 0e27 b032 177b 480f 5865 7d2b
00000250: 2816 8b8f f084 9a2e cf4e b891 3e5b 0db3
00000260: 34f1 6bad 3fef bc14 7888 2fb4 ace9 7911
00000270: 0ab2 191f 0d3d cf8f b7de b82b e621 6da6
00000280: 18ef 220f 8dc1 0b26 3b49 6a18 ce17 fb1a
00000290: a04c c911 a68e 6c0f d1d4 5d1d f2fd 0591
000002a0: be73 b834 a35a 900f b5a6 1e90 bfba 682c
000002b0: 7623 5cad ede2 140d 9f7a dc8e f6b0 9c18
000002c0: 7657 dd31 a933 8727 1108 7a90 cbe1 1d10
000002d0: f8eb b490 1a60 4129 941f 5da3 13c6 feb4
000002e0: 7012 1f34 d07b 1ba2 ce71 c731 b784 b631
000002f0: dbe7 b59a aab2 3731 d541 068f 6623 3e96
00000300: 9afd 8c8e e618 2225 b69c 5e2e 36dd c6a6
00000310: 5606 ad92 8500 ad1b 0a09 2db4 bf35 1caf
00000320: c5b9 2b90 e182 f316 7c63 330f 03db bd30
00000330: f02f 091f b172 f62c ea88 8e10 bb6b b9b0
00000340: e183 9627 c161 f41e 9e17 7811 39ea 2e8e
00000350: b89d a20e 290b 3891 a792 d295 7f34 2caa
00000360: b694 6c30 69f8 88a0 731e 379d c417 a19b
00000370: 9839 0094 e84b e5ae 7a5e fe1b 6d20 63a0
00000380: bae9 faaa 244f 7534 3cb9 432e eeae 92b4
00000390: e2a1 5d2c 452e 8c91 1bdf 2d94 9eb4 50b5
000003a0: ce08 f58f 288b 7599 b4cb 8d0f 2ece 01b4
000003b0: bd9a 5a2f b5b5 b2a9 08d5 bd32 cc44 810f
000003c0: 591b 18b0 7323 812a 3e05 232d 25e7 4a10
000003d0: 3acd 4f10 e924 6615 fd5d 420f f0a5 2b92
000003e0: 226a 9b28 969e c70c 0653 2732 4ff7 e490
000003f0: e654 9c8f 563e f68f c20c fa8f 65d9 8eb2
-8.020045e-30 -2.0686575e-07 -6.7952726e-16 -5.3595465e-07 3.320998e-30 7.7803435e-08 9.958813e-30 -5.469621e-07
-3.328011e-19 -1.20371985e-30 6.1945345e-27 8.1354695e-23 4.615446e-30 -3.3320113e-10 1.8808933e-30 4.5600657e-07
7.845152e-30 -8.821639e-29 1.643777e-30 -1.9088713e-29 3.0780152e-28 2.6979512e-08 3.9292647e-10 -1.2530977e-09
1.2143656e-31 3.0238798e-30 -4.565187e-09 -4.3678935e-07 3.6294095e-19 1.2072802e-27 -8.0515584e-14 7.257842e-12
-4.5975828e-08 -9.133048e-26 -4.804359e-31 -1.3658675e-30 1.2538672e-24 1.2937424e-24 -7.0565423e-29 1.187006e-30
-5.1731757e-30 7.175947e-18 5.1800553e-11 -8.164638e-16 1.2198343e-09 -1.21221145e-29 9.737626e-30 -1.7397099e-27
3.7555197e-13 7.0796304e-28 -4.855957e-08 2.2139057e-08 6.2225866e-26 2.0410867e-07 1.419145e-29 -5.1559286e-09
3.6954642e-08 -5.858929e-18 1.8395853e-11 1.06612996e-19 1.5843351e-28 -8.480256e-25 1.2150067e-12 3.6032597e-27
-6.60211e-23 1.1424988e-09 1.8078023e-07 2.940896e-11 3.5825045e-09 9.65738e-12 -5.0891488e-14 1.6390594e-13
-4.865042e-30 -1.8127054e-29 -3.3732915e-24 2.802113e-14 2.3768896e-30 1.1232561e-13 -1.1137508e-25 -4.124763e-10
-2.6694324e-30 5.3878082e-30 2.7173365e-30 1.339026e-18 -5.948276e-25 -1.5297349e-29 6.480375e-23 3.814371e-15
-2.1931104e-09 -1.5381814e-12 3.394092e-30 -8.920022e-14 -8.191584e-07 -4.934037e-18 -5.1353703e-30 1.0905403e-07
-2.789508e-10 -2.7622482e-20 -1.7429929e-07 -2.1770478e-12 1.8294548e-11 3.3959866e-22 1.8657036e-29 -7.368886e-09
1.42443e-30 -3.3858298e-09 -4.0191185e-29 3.5313077e-30 6.128986e-26 4.6996095e-30 5.540912e-13 8.624007e-12
7.4366784e-11 -4.8851186e-18 -1.2839564e-10 -8.149409e-31 -3.77235e-20 -1.5797307e-22 1.0194204e-12 -6.4166194e-28
-1.7806767e-10 6.313816e-10 4.7347597e-13 -1.4121188e-28 -2.8888723e-16 -1.3846586e-29 -3.720881e-07 -2.3685303e-23
2.4829664e-30 -2.8713168e-07 1.08848e-29 1.01307954e-07 4.7920273e-22 -3.1787748e-09 1.6230263e-29 1.2731144e-11
-5.796139e-22 -1.7363707e-13 -7.7731505e-10 -1.0818582e-26 1.0438661e-17 -5.8445116e-30 2.2221642e-13 -2.0987163e-10
1.1581554e-20 2.0506857e-08 9.8844676e-30 9.00243e-13 -1.3714993e-29 7.0267236e-11 -2.907865e-28 -3.2912105e-08
-1.3411761e-11 1.9077515e-26 -1.6347792e-07 1.9714642e-28 3.254628e-20 -2.0435292e-29 1.3135802e-12 -8.2271834e-16
8.0332644e-30 4.8487623e-16 3.0280763e-24 1.03849625e-22 3.1759432e-28 1.16631714e-29 2.935913e-21 -1.0570103e-28
3.4356884e-07 1.4234408e-29 -3.1288432e-29 3.3072848e-12 -1.2513426e-11 4.5879173e-31 -5.4352267e-30 4.050374e-24
6.4418897e-09 3.7526037e-15 -4.931002e-29 3.1136735e-29 -7.136105e-29 4.2937964e-14 -1.1987121e-17 -4.7455305e-07
1.4814736e-07 -2.1071963e-18 5.8046004e-09 5.311985e-09 -7.523443e-23 2.6731564e-09 -6.619389e-30 -1.5359248e-25
-3.4756874e-30 1.4059696e-16 5.0616143e-11 -1.3798969e-15 -1.0919397e-27 2.8620785e-22 -1.6115169e-07 -1.4207212e-10
-3.3866915e-29 3.9341364e-25 8.844541e-30 1.3813807e-09 2.905053e-20 7.004474e-12 5.6220074e-29 -1.349114e-09
4.1776347e-15 2.5874935e-20 1.9571028e-28 -2.155993e-30 4.008796e-30 -1.451848e-28 -8.50497e-26 -1.5294882e-13
8.606763e-10 -2.320368e-19 -2.423559e-21 -2.6650574e-22 -6.473707e-27 -1.0427198e-10 4.208183e-22 -1.9238377e-19
-4.4571101e-13 2.2846194e-07 4.4502388e-11 -2.7321897e-07 3.1495852e-12 -2.211662e-28 -8.778268e-27 -7.774887e-07
-2.4162257e-29 -1.26943055e-23 1.3982137e-29 -1.2089069e-07 1.9881959e-10 -7.936309e-14 2.2099371e-08 1.2746882e-29
-5.533614e-10 2.29396e-13 9.266641e-12 4.0015543e-29 4.0981653e-29 4.6477247e-26 9.58304e-30 -5.416262e-28
1.7254485e-14 3.075625e-31 9.739557e-09 -9.031118e-29 -1.541549e-29 -2.4281484e-29 -2.4656817e-29 -1.6629835e-08

convs.1.nn.lins.1.bias f4 [128]
00000000: e5f1 528e 00d8 9c93 7f86 ab14 f2ca 9b92
00000010: 2378 db11 f4f2 60b2 62f6 1312 e1c7 96b4
00000020: 8a2f d034 901b aaaf 802c 27ab 959c 9694
00000030: 0e61 a194 4475 2418 a4b4 7313 b56a d122
00000040: 9760 b912 d80a 0c9f 4045 2594 a148 99b3
00000050: 54be f292 4c5e 0613 5561 8f12 7f6f 1f16
00000060: de15 f5ad 8f22 e3b4 8161 3cb4 50bc da15
00000070: 8c48 c434 ddfe 190e 7b69 f622 2649 4116
00000080: c549 cd30 f6fb 5f1a 23ff 9a11 42b7 c09c
00000090: d880 cd12 3974 c7b3 3693 0e13 14ba feb4
000000a0: 03c7 c3a9 43f3 3894 0283 0292 a77d 0d13
000000b0: 5e09 fd13 6e53 beb0 ed5f a016 1ba4 b82e
000000c0: 285c 3591 2d16 d1ab 6696 2c94 8ff0 61a6
000000d0: e794 e4ae aad1 5ba3 0538 971e c686 3114
000000e0: af86 1eb4 4ca1 ba13 b891 7c35 2841 7a93
000000f0: 249b 8714 0b4d 881e 6973 dab1 f2f0 822b
00000100: 6120 662f dff0 ec92 de85 9694 d9bf 0794
00000110: 1e04 6b99 9100 0094 17cc 4992 e8a7 a2b2
00000120: cb9a a730 6f15 6a28 45bb 7c20 23d2 6492
00000130: b6e8 6094 1618 01b5 5b45 f59f 50b1 8db4
00000140: dcc0 a894 2c02 ff93 726e 2e8d e11f 2413
00000150: c037 020e 355b 7b25 562a 38a9 efe9 3e2b
00000160: e2cf edb0 abda 6793 8181 de92 f047 0a1c
00000170: a0ca 0cb5 2148 3a32 0f68 3d13 d706 b833
00000180: 1edf 4e12 62bc b492 bfc2 7b12 f1f6 0892
00000190: e03e 882c 1b60 e094 04f6 0234 7471 0eb5
000001a0: 983e b2a0 a80d c331 17fa a722 eefd 0697
000001b0: fb30 8e13 7e31 8412 fa0e 5694 50c6 45b1
000001c0: a666 e113 abc3 5c93 b14a 1e93 7a28 0494
000001d0: e05f 4c94 dfff b62d 0203 2c91 6ab8 fcb2
000001e0: 16c6 a9ac 0615 e392 3ba5 44a4 073a d81c
000001f0: ad17 4e13 dbbc 859d 5449 9ea2 bba5 9e14
-2.6000966e-30 -3.959293e-27 1.7319637e-26 -9.831905e-28 3.4626148e-28 -1.3093757e-08 4.668871e-28 -2.8085108e-07
3.8777608e-07 -3.0942404e-10 -5.9392075e-13 -1.520789e-26 -1.6295127e-26 2.1255707e-24 3.0759975e-27 5.6762544e-18
1.1698953e-27 -2.9655123e-20 -8.344028e-27 -7.137829e-08 -1.5319267e-27 1.695967e-27 9.048563e-28 1.28791e-25
-2.7862986e-11 -4.230719e-07 -1.7544336e-07 8.8346604e-26 3.656063e-07 1.8981418e-30 6.6790115e-18 1.5613497e-25
1.493668e-09 4.631885e-23 2.4454156e-28 -1.2752865e-21 1.2969081e-27 -9.2878004e-08 1.79955e-27 -4.7446576e-07
-8.6942626e-14 -9.337601e-27 -4.1182247e-28 1.7858653e-27 6.3875416e-27 -1.3848032e-09 2.5909932e-25 8.396502e-11
-1.430678e-28 -1.4856498e-12 -8.713442e-27 -7.8388574e-16 -1.039469e-10 -1.1916412e-17 1.6010916e-20 8.962796e-27
-1.4763894e-07 4.7112052e-27 9.4089364e-07 -3.158656e-27 1.3692709e-26 1.4431424e-20 -6.3577557e-09 9.303931e-13
2.0929881e-10 -1.4953073e-27 -1.519893e-26 -6.8535935e-27 -1.2150047e-23 -6.46246e-27 -6.3675977e-28 -1.8935637e-08
1.2194844e-09 1.2994257e-14 2.1407193e-19 -7.220313e-28 -1.1355004e-26 -4.8091295e-07 -1.03876275e-19 -2.6392308e-07
-1.7039735e-26 -6.437319e-27 -5.3750833e-31 2.0715428e-27 1.605058e-30 2.1801682e-16 -4.0892928e-14 6.782621e-13
-1.7303103e-09 -2.926411e-27 -1.4042095e-27 4.5753347e-22 -5.244892e-07 1.0843025e-08 2.3906459e-27 8.569412e-08
6.527715e-28 -1.1406037e-27 7.944168e-28 -4.321841e-28 3.872333e-12 -2.2656127e-26 1.2196693e-07 -5.306422e-07
-3.0195794e-19 5.6767995e-09 4.5530234e-18 -4.361824e-25 3.5894138e-27 8.342572e-28 -1.08071926e-26 -2.878e-09
5.6899204e-27 -2.7864376e-27 -1.997923e-27 -6.6722795e-27 -1.0318276e-26 2.0804634e-11 -1.3569334e-28 -2.9420523e-08
-4.825261e-12 -1.4330897e-27 -4.264068e-17 1.4308681e-21 2.6012528e-27 -3.540008e-21 -4.2903625e-18 1.6019292e-26

convs.2.nn.lins.0.weight f4 [128, 256]
00000000: f5a0 c38c 84dd 9e2c 5b90 8f11 8055 a716
00000010: 987c 9595 2dff 328d da52 d514 7180 7092
00000020: 83bf 4093 33cf bf2b b9c3 4e10 c3cc 192b
00000030: 2919 7a0f 65d3 ff8d ca57 6592 6c0f 5892
00000040: 6e20 9c0e db95 7e9d 6967 0aad 8f54 9a0e
00000050: 7a4e bc23 469f 230f 2e26 8a11 a961 9915
00000060: 3d37 1d16 4b94 6f0f 0c93 be0e ac90 6191
00000070: 421b 0698 615f d50c 504f 9411 cb05 0325
00000080: b862 c8aa db1c 21a9 cba7 a912 dfd3 3112
00000090: 7e75 5410 81ce 98a8 bbc7 8411 b43b 3c23
000000a0: 6a7d 0f9f 9128 1790 9a05 0795 b9ef fd15
000000b0: a6a7 c82b 0a16 400e c9c2 9f18 906c d591
000000c0: 5373 488e 8b1f 9720 2817 a32b 2546 9e12
000000d0: 1853 7093 37e5 aba0 254b a32c 4784 6c91
000000e0: 0a6a 078e a383 ab19 134c eca0 34af 1796
000000f0: dd0c 46a2 8773 a72a 806d 6011 529a c412
00000100: 7870 d194 5c59 a511 67c6 5191 3556 0d1f
00000110: a334 a68f 4af2 b714 13bd 021c bddc 4a26
00000120: 0339 0aab d439 42a9 ca43 4a0c 85ab 039c
00000130: 0e9c 620f dc75 1f90 f896 c292 9c21 ee8d
00000140: 0dc7 5ea3 504e 7820 d6ba 829d 4eeb 1fad
00000150: d017 2791 b1fd 9d0f 3698 c28f c8c0 0a9d
00000160: 2520 8194 7c25 a218 3ad9 a111 018e 4da2
00000170: dad1 4aac 051d 8995 dd35 4929 7a8b 8729
00000180: a903 8420 1ce6 e213 271a 1091 eea4 0291
00000190: 7296 e692 0533 fd9c f1d4 9b15 29d2 f915
000001a0: f649 3d11 a7ef a02c d8a4 3113 28ef 0e11
000001b0: b5c8 fb90 4eea a011 a359 34a2 cdf3 68a5
000001c0: 47e1 04a1 6e3b 0e91 0b38 7c25 8219 f990
000001d0: d8b9 8198 49c3 8d92 83b3 189f 2dd4 0b8f
000001e0: f0c6 ea0d 5f18 6798 ee08 b792 be47 0495
000001f0: 7899 9220 f224 889b 6461 c791 4db7 6da6
00000200: b54b b122 ec95 0f1a 426d f12a f8dc 309d
00000210: 85af 7014 f9b4 f4a5 3369 3810 5fca 1d9f
00000220: 3adc cba1 deaf 0b9f 4d64 2a0f 992e 9b26
00000230: 1a9c 8ba0 981f a88b a717 ffaa d57b ce21
00000240: 8420 3a91 ce90 0295 7427 959c 6361 6ea6
00000250: 1149 fb8e c1f7 6c9c 317a 0010 ad98 a910
00000260: 656e a415 3bbd 101c c9f8 3d16 29e1 9a0f
00000270: 1165 ea8f eef5 6f93 ba77 f324 eb2b 6da6
00000280: a17d 0196 d771 6c11 2334 081c b651 1f13
00000290: 6a57 d590 922b bda4 b5f9 fd1e c49f 5c1d
000002a0: fff2 688f ca70 04a1 7004 8f8d 681d 9018
000002b0: d240 5523 07da 2a10 59aa 9e9f dee1 c71a
000002c0: d339 540e 9417 b48f 5a74 ce10 21d3 d51c
000002d0: 550e 1696 88c6 cf99 6064 4d91 6038 109c
000002e0: b97b de8d 6d7f 681d 9fcc 1d26 f945 58a4
000002f0: 2857 980d 2e8e 9c18 a519 0ea5 5302 3591
00000300: 34e8 bfa2 803e b096 e034 c218 cad3 6f94
00000310: af2f 6e18 27a7 099e 1195 3bab 6418 7a0e
00000320: 87f0 7b9d 77f9 7c0e b8e2 7f93 7300 c3a4
00000330: 8dc3 320f 2fb1 019f 212f 6b99 a516 9e18
00000340: 8890 8910 872f cc0f 40e9 c714 aff1 ba9a
00000350: 9f18 2e10 d9da 479d aa58 6f16 643e e399
00000360: 51c3 50a3 ddc3 ef90 5497 d08f 8f1d 848f
00000370: e2dc 4326 13b7 9f10 4366 bba9 6790 b70e
00000380: b5d6 6b9b 2249 b910 3eab 750f c9ae f72b
00000390: 21dd 6ca6 96fe 0a8e e679 5d90 721c 4f0f
000003a0: 024d 8490 4033 5491 2bff 17ac 3e5b 3cad
000003b0: f7b7 0b14 27f5 1d90 6de2 8f1a a609 0d21
000003c0: b981 1c94 ae7f 3f96 3aeb c597 5e19 539e
000003d0: b7e1 6816 c820 af9c 9cc3 f610 1223 200f
000003e0: 1ddb 6319 984b b690 1e14 f314 382f 761d
000003f0: 6f07 de20 e0e2 d40f 6ec3 8b11 5227 0990
-3.014138e-31 4.5152233e-12 2.2650388e-28 2.7034263e-25 -6.0377195e-26 -5.515764e-31 2.1540183e-26 -7.5888963e-28
-2.432823e-27 1.3628876e-12 4.0777116e-29 5.4640683e-13 1.2330797e-29 -1.576648e-30 -7.2367867e-28 -6.817659e-28
3.8488198e-30 -3.3694094e-21 -7.8673535e-12 3.8045358e-30 2.0416237e-17 8.0671954e-30 2.179609e-28 6.195029e-26
1.2699789e-25 1.181217e-29 4.6980217e-30 -1.7793951e-28 -1.7332856e-24 3.287525e-31 2.3399163e-28 1.1364402e-16
-3.5595637e-13 -3.577421e-14 1.0706764e-27 5.6112503e-28 4.190014e-29 -1.6964947e-14 2.0949021e-28 1.0204143e-17
-3.0385168e-20 -2.981075e-29 -2.7267452e-26 1.025641e-25 1.4257387e-12 2.3676439e-30 4.129722e-24 -3.3672381e-28
-2.470743e-30 2.5601268e-19 1.1588274e-12 9.988494e-28 -3.0333227e-27 -2.9120208e-19 4.6410814e-12 -1.8657878e-28
-1.669109e-30 1.7734153e-23 -4.0030297e-19 -1.2252967e-25 -2.6840814e-18 2.9745322e-13 1.7704227e-28 1.2407382e-27
-2.1147968e-26 2.6087482e-28 -1.654833e-28 2.992922e-20 -1.6389139e-29 1.8573844e-26 4.3257765e-22 7.0381985e-16
-4.910657e-13 -4.312681e-14 1.5581913e-31 -4.356595e-22 1.1172715e-29 -3.1448017e-29 -1.2280338e-27 -1.4675974e-30
-1.2076795e-17 2.1032329e-19 -3.4603897e-21 -9.090352e-12 -1.3181315e-28 1.5579114e-29 -1.9188506e-29 -1.8363813e-21
-1.303835e-26 4.191387e-24 2.5535197e-28 -2.7857857e-18 -2.8822418e-12 -5.5379644e-26 4.4677685e-14 6.0193997e-14
2.2364092e-19 5.7277326e-27 -1.1367656e-28 -1.0306015e-28 -1.4552128e-27 -1.6755324e-21 6.2939964e-26 1.00901873e-25
1.4932262e-28 4.5740803e-12 2.2421815e-27 1.127552e-28 -9.931128e-29 2.538795e-28 -2.4442002e-18 -2.0205395e-16
-4.502149e-19 -1.1220138e-28 2.1876504e-16 -9.8252484e-29 -3.3533373e-24 -8.946493e-28 -3.233574e-20 -6.894093e-30
1.4469256e-30 -2.9868354e-24 -1.1551125e-27 -2.6713782e-26 2.483492e-19 -2.2523188e-22 -3.1456686e-28 -8.247431e-16
4.8056104e-18 2.9692813e-23 4.2886013e-13 -2.3407644e-21 1.2151519e-26 -4.2449885e-16 3.6368644e-29 -3.341344e-20
-1.3814109e-18 -2.957987e-20 8.400964e-30 1.0767916e-15 -2.3650815e-19 -6.4758783e-32 -4.5313512e-13 1.3991881e-18
-1.4682832e-28 -2.6367522e-26 -9.870191e-22 -8.270482e-16 -6.1946638e-30 -7.8406064e-22 2.5337682e-29 6.689398e-29
6.6413244e-26 4.789018e-22 1.5345801e-25 1.5272301e-29 -2.3113111e-29 -3.0287294e-27 1.05587276e-16 -8.2285413e-16
-1.0460179e-25 1.8652197e-28 4.506601e-22 2.0108908e-27 -8.414837e-29 -8.2039495e-17 2.6890693e-20 2.9199354e-21
-1.14852825e-29 -4.4872615e-19 -8.814124e-31 3.725282e-24 1.1560479e-17 3.369455e-29 -6.719742e-20 8.266938e-23
2.6158859e-30 -1.7758452e-29 8.143194e-29 1.4149733e-21 -1.2121426e-25 -2.1483484e-23 -1.6202579e-28 -4.7718466e-22
-1.37115915e-30 3.0770822e-21 5.474763e-16 -4.6896803e-17 9.388705e-31 4.046862e-24 -1.2325225e-16 -1.4279099e-28
-5.201651e-18 -2.8473777e-25 5.0201215e-24 -1.21081844e-26 3.0784853e-24 -7.287286e-21 -6.6642617e-13 3.0826623e-30
-3.3343923e-21 3.1181511e-30 -3.2297306e-27 -8.456853e-17 8.813739e-30 -2.7463375e-20 -1.2158733e-23 4.0864908e-24
5.425966e-29 2.013426e-29 2.0185866e-26 -7.731826e-23 3.4334417e-29 -2.6450572e-21 1.9334244e-25 -2.349645e-23
-1.13170625e-17 -9.4570653e-29 -2.0568673e-29 -1.302759e-29 6.795357e-16 6.299651e-29 -8.322208e-14 4.5252037e-30
-1.950812e-22 7.308231e-29 1.2112413e-29 1.7598918e-12 -8.2178634e-16 -1.7132392e-30 -4.3678472e-29 1.0211366e-29
-5.218347e-29 -1.6739644e-28 -2.1600037e-12 -1.0706823e-11 7.053987e-27 -3.115165e-29 5.9509224e-23 4.778543e-19
-7.9015706e-27 -1.5469146e-25 -1.2790206e-24 -1.1175493e-20 1.8812034e-25 -1.1589002e-21 9.7331275e-29 7.895363e-30
1.17798745e-23 -7.190281e-29 2.4544664e-26 3.258224e-21 3.7613182e-19 2.0992203e-29 2.2050776e-28 -2.7048777e-29
